rl_model_prob_pnl.safetensors (safetensors, 154576 bytes, 11 tensors)

actor.fc1.bias f4 [128]
0	0x3b4083a3	0.0029375337
1	0xbcce3117	-0.025169892
2	0xbd8c1dc1	-0.068416126
3	0xbe240ead	-0.16021223
4	0x3c57f5b3	0.013181138
5	0x3cf26343	0.029588347
6	0xbe406c28	-0.18791258
7	0xbe2b6fea	-0.1674191
8	0x3cae5988	0.021282926
9	0x3e3189ce	0.17337725
10	0xbcfc6ad7	-0.030812664
11	0x3e45f9bd	0.19333549
12	0xbe3761fb	-0.1790847
13	0xbced5e82	-0.028975729
14	0xbe1b73ce	-0.15180895
15	0x3c949843	0.01813901
16	0xbc374b30	-0.01118736
17	0xbdf24e9f	-0.11831402
18	0xbe280281	-0.16407205
19	0x3d2adc2a	0.04171387
20	0x3da3be58	0.079952896
21	0x3d178392	0.03699071
22	0x3e01792a	0.12643877
23	0xbe23953f	-0.15974902
24	0x3d3d3a01	0.046197895
25	0x3d557676	0.052114926
26	0x3d5dc443	0.054142248
27	0xbdbc82b8	-0.0920462
28	0xbc863fa4	-0.016387768
29	0x3d86f186	0.06589036
30	0x3e2bb771	0.16769196
31	0x3e218197	0.15772091
32	0x3e091ebb	0.13390629
33	0xbe54fa83	-0.20798688
34	0xbc111104	-0.0088541545
35	0xbca8fd2b	-0.020628532
36	0x3d38a7b6	0.045081817
37	0x3d5837e5	0.05278768
38	0xbe57eb12	-0.21085766
39	0xbe337bc0	-0.17527676
40	0xbda343df	-0.0797193
41	0x3dd2da00	0.102954865
42	0x3d0a28f3	0.03373046
43	0xbe33bc11	-0.1755221
44	0xbe215804	-0.15756232
45	0xbd7ed3ba	-0.062213637
46	0xbd71b2e8	-0.05900851
47	0xbe0c7b58	-0.13718927
48	0x3dc4ec7c	0.09615418
49	0x3e53d2df	0.2068591
50	0xbdc7a64d	-0.09748516
51	0x3e64e7a6	0.22353992
52	0x3e40d3f7	0.18830858
53	0x3e59144b	0.21199147
54	0x3e00db33	0.12583618
55	0x3e24508f	0.16046356
56	0x3d958d4d	0.073023416
57	0x3dd05a50	0.10173476
58	0x3e01fc4f	0.12693904
59	0xbd52a278	-0.051424474
60	0x3c1bdc05	0.009512906
61	0xbe772800	-0.24136353
62	0x3dba8004	0.09106448
63	0xbe3935ee	-0.18086979
64	0xbd91095b	-0.070818625
65	0xbca6d774	-0.020366408
66	0xbe047549	-0.12935366
67	0x3d2e28d8	0.04251942
68	0x3dad27f5	0.08454887
69	0xbc796802	-0.015222551
70	0x3e5bb04e	0.21453974
71	0x3d89186b	0.066941105
72	0xbc61d7ce	-0.013784362
73	0x3e82d632	0.25554043
74	0x3c5c48d8	0.013445102
75	0x3d9c08b8	0.076188505
76	0x3e804aeb	0.25057158
77	0x3e41618f	0.18884872
78	0xbcd843ca	-0.026399512
79	0x3dd4a4cb	0.10382994
80	0xbe574dd8	-0.21025789
81	0x3e0ea1af	0.13928865
82	0xbe78ee3a	-0.24309626
83	0xbe11ee53	-0.1425107
84	0xbd9c2d58	-0.07625836
85	0xbcbf7665	-0.023371885
86	0x3e83268e	0.25615352
87	0x3d5a7563	0.053334605
88	0x3d83c262	0.0643356
89	0x3ba42cee	0.005010239
90	0x3e5685a9	0.20949425
91	0xbe139003	-0.14410405
92	0xbcbe16db	-0.023204258
93	0xbe12a661	-0.14321281
94	0xbde787b8	-0.11305183
95	0xbd72e7b5	-0.059303004
96	0xbe16ba53	-0.14719515
97	0x3e4154c3	0.1887999
98	0x3bb978a7	0.005660135
99	0x3df6dbe0	0.120536566
100	0xbde62bea	-0.11238845
101	0x3e68ebaf	0.22746156
102	0x3e6b3fdb	0.22973578
103	0x3da37924	0.0798209
104	0xbe65abae	-0.22428772
105	0x3d704293	0.05865724
106	0xbe5d4f81	-0.2161236
107	0x3992c11d	0.0002799117
108	0x3cb94bd5	0.022619167
109	0xbe4f13b2	-0.20222357
110	0x3d50e9f4	0.051004365
111	0xbe21ec65	-0.15812834
112	0x3e766016	0.24060091
113	0x3e827d1b	0.25486073
114	0x3e544a72	0.20731524
115	0x3e2f004e	0.1708996
116	0x3d444fbd	0.047927607
117	0xbe75b11d	-0.23993345
118	0x3dbd0afc	0.09230611
119	0xbda0937f	-0.07840633
120	0x3cf8a3fd	0.030351633
121	0xbdadb2ef	-0.084813945
122	0x3d92cbcd	0.07167778
123	0xbc511a28	-0.012762584
124	0xbddaf4fc	-0.10691258
125	0xbe28dbf5	-0.16490157
126	0x3da3cce5	0.07998065
127	0xbe30d36a	-0.17268148

actor.fc1.weight f4 [128, 18]
0	0xbd5623a9	-0.052280102
1	0xbd0f0fd9	-0.034927223
2	0xbd7213c0	-0.059100866
3	0x3e4ee683	0.2020512
4	0xbe00045f	-0.12501667
5	0xbe23ca76	-0.15995201
6	0xbe11641b	-0.14198343
7	0x3cbac6d0	0.02279988
8	0x3cbfbf54	0.023406662
9	0x3bdbfd35	0.0067135342
10	0x3d9364e6	0.07196979
11	0x3e096c75	0.1342028
12	0x3d498aab	0.04920451
13	0xbe457bc0	-0.19285488
14	0x3d0f0e34	0.034925655
15	0xbe324c56	-0.17411932
16	0xbdf9d695	-0.121991314
17	0x3e2a82a7	0.16651402
18	0x3d865993	0.06560054
19	0xbe514bc0	-0.20439053
20	0x3e048e8b	0.12945001
21	0xbcf2a54f	-0.02961984
22	0x3d83c204	0.0643349
23	0xbdd0619c	-0.101748675
24	0x3e8ada5f	0.2711973
25	0xbbd5cc4b	-0.0065245978
26	0x3d96875c	0.073500365
27	0x3da0ec82	0.0785761
28	0xbe15ed63	-0.14641337
29	0xbe59948b	-0.21248071
30	0xbdfca6a1	-0.123364694
31	0xbddc1069	-0.107453175
32	0xbd442025	-0.047882218
33	0x3e61fb13	0.22068433
34	0xbce92d40	-0.02846396
35	0xbe1047c1	-0.14089872
36	0xbe3d243c	-0.18470854
37	0x3e70afaf	0.23504518
38	0xbcdae817	-0.026721997
39	0x3e4b6330	0.19862056
40	0xbddca7c6	-0.10774188
41	0xbe221761	-0.15829231
42	0xbdcdd8eb	-0.100511394
43	0xbdd6b6e6	-0.10484104
44	0x3d386320	0.045016408
45	0xbd21161b	-0.039327722
46	0xbde7be6c	-0.11315617
47	0xbd9c03b0	-0.07617891
48	0xbe387771	-0.18014313
49	0xbdec9fb5	-0.11553899
50	0x3d32fff5	0.04370113
51	0x3dad6a71	0.08467568
52	0x3d59ad2c	0.053143665
53	0xbe734ee6	-0.23760566
54	0x3e736762	0.23769906
55	0x3ceffe6f	0.029296128
56	0xbe1f993c	-0.15585798
57	0x3c57c0c8	0.013168521
58	0xbd42c4ea	-0.047551073
59	0xbd5881c9	-0.052858148
60	0x3e31ecaa	0.17375436
61	0xbcb12f9f	-0.021629153
62	0x3e2718dc	0.16318077
63	0xbca13714	-0.019679584
64	0x3e7e9a7e	0.24863622
65	0x3e1f5261	0.15558769
66	0xbdec2c5c	-0.115318984
67	0x3e3b1423	0.182694
68	0xbdc14b75	-0.094382204
69	0xbdc86309	-0.097845145
70	0xbda65856	-0.081223175
71	0x3e961e6d	0.29320088
72	0xbda110db	-0.07864543
73	0xbe6d914b	-0.23199956
74	0xbe3ce95b	-0.18448393
75	0xbd98f528	-0.07468635
76	0xbe6eb9a3	-0.23313002
77	0xbc8153b5	-0.015786985
78	0x3d810178	0.06299108
79	0xbe031aea	-0.12803236
80	0x3e267819	0.16256751
81	0x3e283540	0.16426563
82	0xbbcd079d	-0.006257011
83	0x3def0836	0.11671488
84	0xbe412c67	-0.18864594
85	0xbdbce35b	-0.09223052
86	0xbc992bbc	-0.018697612
87	0x3d84bee3	0.06481721
88	0xbe139795	-0.14413293
89	0xbc61a9a7	-0.013773358
90	0x3cbe5702	0.023234848
91	0x3e293706	0.16524896
92	0x3dae21a5	0.08502511
93	0xbd91d731	-0.07121123
94	0xbd5cc1fc	-0.053895935
95	0xbccd1470	-0.02503416
96	0x3c94982f	0.018138973
97	0x3d1edd4f	0.038785275
98	0x3d99d093	0.075104855
99	0x3dd796d1	0.10526813
100	0xbe31d3b6	-0.17365918
101	0xbe2b040e	-0.16700765
102	0xbd80a1c2	-0.06280853
103	0x3e2626fe	0.16225812
104	0xbd5a998c	-0.05336909
105	0x3d325c8c	0.04354529
106	0x3d3fa39c	0.04678689
107	0x3e20680e	0.15664694
108	0x3de9c100	0.11413765
109	0x3e8c3af0	0.27388716
110	0x3ddc7d51	0.1076609
111	0xbe07dcf8	-0.13267887
112	0xbdcbb8dc	-0.099473685
113	0xbd246097	-0.040131178
114	0x3a46247e	0.00075585383
115	0x3daf449d	0.08558009
116	0x3e1e48f3	0.15457515
117	0x3dec68d7	0.11543434
118	0xbc6d4069	-0.014480689
119	0x3e31caaf	0.17362474
120	0x3c7cd131	0.0154307345
121	0xbd843eb3	-0.064572714
122	0x3d94c307	0.07263761
123	0x3e02c3ff	0.12770079
124	0x3de5a6a6	0.11213426
125	0xbcfa7daf	-0.030577509
126	0x3e380731	0.17971493
127	0xbe26c552	-0.16286209
128	0xbd4c277a	-0.049842335
129	0x3e3b0836	0.18264851
130	0xbce1a86f	-0.027546136
131	0xbd91becf	-0.07116472
132	0xb916cdee	-0.0001438183
133	0xbc1f56bb	-0.009725268
134	0xbd64440c	-0.055728957
135	0x3e3834f3	0.17988949
136	0x3c387108	0.0112574175
137	0x3c5ace10	0.013354793
138	0xbe7100b7	-0.23535429
139	0x3e01f86a	0.12692419
140	0x3b29fb94	0.0025937306
141	0x3d31db5a	0.04342208
142	0x3e47b5c1	0.19502927
143	0x3cc5aaec	0.024129353
144	0x3c33bb48	0.010969944
145	0xbe268114	-0.16260177
146	0x3e7dda75	0.24790366
147	0xbd40897b	-0.04700611
148	0xbc1868e1	-0.009302349
149	0x3d5077d1	0.050895516
150	0x3dfef2be	0.12448643
151	0x3df9b1af	0.121920936
152	0x3d5db621	0.05412877
153	0xbdc39668	-0.09550172
154	0xbd88f499	-0.06687278
155	0x3e3dcd1d	0.18535276
156	0x3e1db931	0.15402676
157	0x3e434224	0.190682
158	0x3d5bb509	0.053639445
159	0xbe2e9dac	-0.17052335
160	0x3e43f843	0.19137673
161	0x3e67fcd4	0.2265504
162	0x3e5179d0	0.20456624
163	0x3df91bb2	0.121634856
164	0xbe203e74	-0.15648824
165	0x3e6094f5	0.21931823
166	0x3e8f1613	0.2794653
167	0x3dde6b3a	0.108602956
168	0xbbec7f63	-0.007217334
169	0xbcb9375d	-0.022609407
170	0xbe56c251	-0.20972563
171	0x3e01d920	0.12680483
172	0x3e103aae	0.14084885
173	0xbe27e822	-0.16397145
174	0xbe478cfc	-0.19487375
175	0x3d82f35e	0.06394075
176	0x3e7188be	0.23587319
177	0xbe794f6b	-0.24346702
178	0xbdbbe2c0	-0.091741085
179	0xbe82849e	-0.25491804
180	0xbbad772d	-0.005293748
181	0xbda35aa8	-0.07976276
182	0x3d832ae8	0.06404668
183	0xbe19488e	-0.14969084
184	0xbe13a4ba	-0.14418307
185	0x3ddca205	0.1077309
186	0xbe5c0a63	-0.21488337
187	0x3ddb660c	0.10712823
188	0xbe7b1ee5	-0.24523504
189	0xbd57549b	-0.05257092
190	0xbdb51f5e	-0.088438734
191	0x3e3536c9	0.1769668
192	0xbd7a88fe	-0.061165802
193	0x3d011c81	0.031521324
194	0x3bcb28bf	0.0061999257
195	0xbe276773	-0.16348056
196	0x3c82ae68	0.015952304
197	0xbe2ef0d9	-0.17084064
198	0xbe156586	-0.1458951
199	0x3c6e617a	0.014549607
200	0x3c5ec268	0.013596155
201	0x3df0f2d4	0.11765066
202	0x3e33425a	0.1750578
203	0x3daa830e	0.08325778
204	0xbd4873f5	-0.04893871
205	0x3da735a6	0.081645295
206	0x3e42f652	0.19039276
207	0x3de465ad	0.111522056
208	0x3cd9f3c9	0.026605504
209	0x3e0403e7	0.12892114
210	0x3e3bb3dd	0.18330331
211	0x3e3ea9e5	0.18619497
212	0x3e1fa70e	0.1559107
213	0x3e4b2f4f	0.19842266
214	0xbd83701a	-0.06417866
215	0xbbf0c006	-0.0073471097
216	0xbe493075	-0.19647391
217	0xbe74f591	-0.23921801
218	0x3d3cf65b	0.04613338
219	0xbdf79a1a	-0.120899394
220	0x3e09c50a	0.1345407
221	0x3e473031	0.19451977
222	0x3d9cd919	0.076585956
223	0x3e1f1675	0.1553591
224	0x3e6ab831	0.22921826
225	0x3dd26e31	0.102749236
226	0x3e0900bf	0.13379191
227	0x3e55ffab	0.20898311
228	0x3e31c469	0.17360081
229	0x3c535607	0.0128989285
230	0x3c7e3147	0.015514678
231	0x3bb5c62b	0.005547305
232	0xbe42e592	-0.19032887
233	0xbe2abcbf	-0.16673563
234	0xbd816cc2	-0.06319572
235	0x3dbc713a	0.09201284
236	0xbde22632	-0.110424414
237	0xbb58d329	-0.0033084846
238	0xbcbcee50	-0.023062855
239	0xbe3ed8c9	-0.18637384
240	0xbd348ad0	-0.044077694
241	0xbe02287e	-0.12710759
242	0x3d7930bc	0.060837492
243	0x3d086d57	0.0333074
244	0xbc074f7b	-0.008258696
245	0x3d4bc3d4	0.049747303
246	0xbe28eec8	-0.16497338
247	0x3e2b8664	0.16750485
248	0xbe365990	-0.17807603
249	0x3da72c9d	0.08162806
250	0xbbe6d8a0	-0.0070448667
251	0xbe43a654	-0.19106418
252	0xbe3297ac	-0.1744067
253	0x3e09a84e	0.1344311
254	0xbe4d13f8	-0.20027149
255	0x3e8b4487	0.2720072

actor.fc2.bias f4 [128]
0	0xbc020820	-0.007936507
1	0x3c1a0fcf	0.009403183
2	0x3d0fa14f	0.035065945
3	0x3cf509f2	0.029911969
4	0x3c9570f0	0.01824233
5	0xbc4965ab	-0.012292306
6	0x3d7a6218	0.061128706
7	0xbd1876be	-0.037222616
8	0xbda58873	-0.08082666
9	0x3c35141f	0.0110521605
10	0x3a03f535	0.0005033792
11	0xbcc0a409	-0.023515718
12	0xbd928569	-0.07154352
13	0xbd96735c	-0.07346222
14	0xbaefb459	-0.0018288001
15	0x3ccf134c	0.025277756
16	0xbd560dc1	-0.05225921
17	0xbd574b82	-0.052562244
18	0x3d88d61c	0.06681463
19	0x3bcf9991	0.006335445
20	0xbd784e99	-0.06062183
21	0x3cd356b9	0.025798189
22	0x3d25d158	0.04048285
23	0xbd91d8eb	-0.07121452
24	0xbd55b818	-0.05217752
25	0x3da18a4a	0.07887705
26	0xbc2ce4a7	-0.010552562
27	0xbd33e38b	-0.043918174
28	0xbbe6945f	-0.00703673
29	0xbc91ea6d	-0.017811978
30	0xbd836b9d	-0.0641701
31	0x3d33fc85	0.043941993
32	0x3d464d24	0.04841341
33	0x3d0a24b8	0.033726424
34	0x3d8b8985	0.06813339
35	0xbd2f7352	-0.042834587
36	0xbd790dd2	-0.060804196
37	0xbdeae92b	-0.114702545
38	0xbdc706bb	-0.097180806
39	0x3c5fa70f	0.01365067
40	0xbc9b16c0	-0.018931746
41	0xbd340c7a	-0.04395721
42	0xbd44b4df	-0.048024055
43	0xbc12a71a	-0.008950973
44	0x3cd06a8c	0.02544143
45	0x3cec19e9	0.028820949
46	0xbd126427	-0.035740044
47	0xbd4745a3	-0.048650395
48	0xbd7e3b80	-0.062068462
49	0x3deed927	0.11662512
50	0x3da2710a	0.07931717
51	0xbd232c23	-0.039837014
52	0xbd18e674	-0.037329152
53	0x3cb46915	0.022022763
54	0xbd43aea8	-0.047773987
55	0x3c866647	0.016406192
56	0xbd5e438c	-0.054263636
57	0x3c55bdda	0.013045752
58	0x3d96adbe	0.073573574
59	0x3ca021a3	0.01954729
60	0x3d48cdc2	0.04902435
61	0xbc4ad61f	-0.012380152
62	0x3d5185c3	0.051152956
63	0x3d4ded16	0.05027493
64	0xba725cdd	-0.0009245405
65	0xbd2bd33b	-0.041949492
66	0xbbc2028d	-0.0059207142
67	0xbcd970d8	-0.026543066
68	0x3da604c1	0.081063755
69	0x3d299844	0.041404977
70	0x3d405473	0.046955537
71	0xbd9697eb	-0.07353195
72	0xbcbfb86b	-0.023403367
73	0x3d8e6264	0.0695236
74	0xbdc818fd	-0.09770391
75	0x3c390b76	0.011294236
76	0xbda2b7d5	-0.079452194
77	0xbcd2e2ca	-0.025742907
78	0x3d95d9c6	0.073169276
79	0x3db3d221	0.08780313
80	0xbceec792	-0.029147897
81	0x3d2d0624	0.042242184
82	0x3d3ec04c	0.046570107
83	0xbda2b205	-0.07944111
84	0xbd91f1b5	-0.0712618
85	0xbc979f95	-0.018508712
86	0xbce3b045	-0.027794013
87	0x3d3653f2	0.04451365
88	0x3d37ad5b	0.04484306
89	0x3d320b86	0.04346802
90	0xbd94a046	-0.07257132
91	0xbcd1ca93	-0.02560929
92	0x3ce72aa0	0.028218567
93	0x3da9817e	0.08276652
94	0xbd131428	-0.035907894
95	0xbda4ac75	-0.08040706
96	0x3c7113bc	0.014714178
97	0xbd364560	-0.044499755
98	0x3cf83900	0.030300617
99	0x3c3a2ed4	0.011363704
100	0x3d5e57c1	0.054282907
101	0xbd86e808	-0.06587225
102	0x3da5bf9e	0.08093189
103	0xbd7d2b1d	-0.061808694
104	0x3db1e369	0.08685953
105	0xbba9b7d6	-0.0051793857
106	0xbdc8bae5	-0.09801272
107	0x3d2e55d9	0.04256234
108	0xbd8d7f19	-0.069090076
109	0x3ca30ff3	0.019905066
110	0xbcdd08f9	-0.026981818
111	0xbc0437e1	-0.008069963
112	0xbd226d3c	-0.039654955
113	0xbc95d020	-0.018287718
114	0xbd124562	-0.0357107
115	0x3cd814a7	0.026377035
116	0xbcdef5e1	-0.027216854
117	0xbd891c6e	-0.06694876
118	0xbce24ce3	-0.027624553
119	0x3db10184	0.08642867
120	0x3c17249c	0.009225037
121	0x3d8623f1	0.06549824
122	0x3d13291d	0.03592788
123	0xbdb1b389	-0.08676822
124	0x3d8f8412	0.07007612
125	0xbd10ab9e	-0.035319917
126	0x3d515c3c	0.051113352
127	0x3d59047e	0.0529828

actor.fc2.weight f4 [128, 128]
0	0x3d3be4c2	0.045872457
1	0xbd9fd1a6	-0.07803659
2	0x3d2e5d8d	0.042569686
3	0xbc94f023	-0.018180912
4	0xbcc463da	-0.023973394
5	0x3cc34285	0.02383543
6	0x3b94a55d	0.0045363144
7	0xbd208ec7	-0.039198663
8	0xbc823ccd	-0.015898133
9	0xb93f25dd	-0.00018229285
10	0xbd250c7a	-0.0402951
11	0x3cc4f7c0	0.024043918
12	0xbcd35588	-0.02579762
13	0x3d8c2ba4	0.06844261
14	0x3c0063fc	0.007836338
15	0xbb9d10b1	-0.0047932495
16	0x3d83596b	0.064135395
17	0x3d937461	0.07199932
18	0xba1e6c88	-0.0006043394
19	0xbd2bbc84	-0.04192783
20	0xbd6896fc	-0.056784615
21	0x3d9cb52d	0.07651744
22	0xbda4d04e	-0.080475435
23	0x3da0c7a4	0.078505784
24	0x3d3500db	0.04419027
25	0x3cfc9fbc	0.030837886
26	0x3d0b9f7b	0.03408764
27	0x3da18ea3	0.07888534
28	0x3b85cfab	0.004083594
29	0xbd0e459a	-0.034734346
30	0xbd750711	-0.059821192
31	0x3c088f91	0.00833501
32	0xbd5e5ed8	-0.05428967
33	0x3d121901	0.035668377
34	0xbd75feb8	-0.06005737
35	0xbda80443	-0.08203938
36	0x3d0dc57f	0.034612175
37	0xbcc4ad4c	-0.024008416
38	0xbd951a5a	-0.07280417
39	0xbd9e420c	-0.07727441
40	0x3db52b20	0.08846116
41	0xbc05cbbf	-0.008166253
42	0xbd887f9b	-0.06664964
43	0xbd6a18c4	-0.057152525
44	0xbd37031c	-0.0446807
45	0x3d67c966	0.056588553
46	0xbd55e9b1	-0.05222482
47	0x398ac643	0.00026469128
48	0xbc76f33a	-0.015072638
49	0x3d906935	0.07051317
50	0xbd8f830f	-0.07007419
51	0x3cbcef5a	0.02306335
52	0x3da2b770	0.07945144
53	0xbdcca152	-0.09991707
54	0xbda6b380	-0.08139706
55	0xbd967883	-0.073472045
56	0xbd17b1e8	-0.0370349
57	0x3d5d3523	0.054005753
58	0x3c83175b	0.016002348
59	0xbc664d64	-0.014056537
60	0xbd829078	-0.063752115
61	0xbb3d02a3	-0.0028840683
62	0x3d899377	0.0671758
63	0x3c096f46	0.008388346
64	0x3d34dcff	0.04415607
65	0xbd38e915	-0.04514416
66	0x3dc17cd1	0.09447635
67	0xbc6df131	-0.014522837
68	0xbdb6e0d1	-0.08929599
69	0xbb3806db	-0.0028080258
70	0xbd935074	-0.071930796
71	0x3d0712bf	0.032976862
72	0x3da8ea79	0.08247847
73	0x3dbf3280	0.09335804
74	0xbdced898	-0.10099906
75	0x3db4e8eb	0.08833488
76	0x3d5afa1f	0.05346119
77	0x3cdaf3f5	0.026727656
78	0xbc448444	-0.011994425
79	0xbd821d32	-0.06353225
80	0xbb6c8451	-0.003608961
81	0x3da21880	0.07914829
82	0x3d4faa61	0.050699595
83	0x3ca10fc3	0.019660836
84	0x3d8b5fd6	0.06805389
85	0xbd1db208	-0.038499862
86	0x3c254088	0.010086186
87	0x3d227571	0.039662782
88	0x3ddc0069	0.10742266
89	0xbd4f71fb	-0.05064581
90	0xbd23817b	-0.039918404
91	0xbcec68b6	-0.028858524
92	0x3ca26262	0.019822303
93	0x3c121ffc	0.0089187585
94	0xbd979db6	-0.07403128
95	0x3c8277c7	0.015926255
96	0x3da81dc1	0.082088
97	0xbd58514b	-0.052811902
98	0x3d31baed	0.043391157
99	0x3d404580	0.04694128
100	0x3bc6a12d	0.006061694
101	0xbd1b24b6	-0.037876807
102	0x3d9c3c0f	0.07628643
103	0xbceda73e	-0.029010411
104	0xbc7bc3e6	-0.01536653
105	0xbd385acb	-0.045008462
106	0x3cae21bf	0.021256326
107	0xbca016e6	-0.019542169
108	0x3c6eb7c2	0.014570178
109	0x3daa7734	0.083235174
110	0xb993c530	-0.0002818494
111	0xbce5572e	-0.027995672
112	0x3c8023d3	0.015642082
113	0x3c31a5ef	0.010842784
114	0x3d921cb0	0.07134378
115	0xbd2b1a3a	-0.04177306
116	0x3da0ca3d	0.07851074
117	0x3d30ab6a	0.043132223
118	0xbcd1fea0	-0.02563411
119	0xbc748ba9	-0.014925876
120	0xbc89d5fb	-0.016825667
121	0x3c89645e	0.016771492
122	0x3da55270	0.08072364
123	0x3c4371ef	0.011929019
124	0x3d2dec10	0.042461455
125	0xbd8588bb	-0.0652022
126	0xbcb40e6e	-0.021979537
127	0xbd07e11b	-0.03317366
128	0xbd06b1e6	-0.0328845
129	0xbb315544	-0.002705888
130	0xbcf4e8a0	-0.02989608
131	0xbcd38bd3	-0.02582351
132	0xbdb0d976	-0.086352274
133	0xbd7639c6	-0.06011369
134	0xbaaca7c5	-0.0013172558
135	0x3b9e608a	0.0048332857
136	0xbd1e60e9	-0.03866664
137	0x3d32d2e5	0.043658156
138	0xbd6c70e2	-0.05772484
139	0x3d15d641	0.03658128
140	0xbce449b2	-0.027867172
141	0x3d18d7fb	0.03731535
142	0x3d90dd09	0.07073409
143	0x3da63f4f	0.08117544
144	0x3da746ba	0.08167787
145	0xbd5039ce	-0.050836377
146	0x3d3b4a90	0.045725405
147	0x3d0e59b5	0.03475352
148	0xba9a701c	-0.0011782679
149	0x3c9d8873	0.019230103
150	0xbdb231eb	-0.08700927
151	0x3da564e9	0.08075888
152	0xbd8ab3a4	-0.06772545
153	0x3d0b73a7	0.03404584
154	0x3c987e95	0.018615047
155	0x3d5403ae	0.05176132
156	0xbda017af	-0.07817017
157	0x3d96b4d0	0.07358706
158	0xbdc5b7de	-0.096542105
159	0x3c6ed580	0.01457727
160	0xbd31f947	-0.04345062
161	0x3da9ec47	0.082970195
162	0xbd18bfd2	-0.03729231
163	0x3d466575	0.0484366
164	0xbd4c7a2c	-0.0499212
165	0xbd9085d6	-0.07056777
166	0x3d2b3f61	0.04180849
167	0xbccb84c9	-0.02484359
168	0x3d2cbad3	0.042170357
169	0x3bd3b9ec	0.0064613726
170	0xbd153ddd	-0.03643595
171	0xbc9649bc	-0.018345706
172	0xbcccbc96	-0.024992269
173	0x3d2be42d	0.041965652
174	0xbc457ab9	-0.012053185
175	0xbcda01e8	-0.026612237
176	0x3cf1d1f2	0.029519055
177	0xbd6276b3	-0.05528898
178	0xbcce0c71	-0.025152417
179	0xbd4ebfeb	-0.050475996
180	0xbda07d6b	-0.078364216
181	0x3da55851	0.08073486
182	0xbd9ad7c0	-0.07560682
183	0xbc156256	-0.009117683
184	0xbd9b122f	-0.075718276
185	0xbb644d5b	-0.0034836147
186	0x3d7fad14	0.06242092
187	0xbd14a461	-0.036289576
188	0xbd7b3f8b	-0.061339896
189	0x3c0026b9	0.007821732
190	0xbda1edd1	-0.07906688
191	0x3d44fee7	0.048094656
192	0x3d944510	0.07239735
193	0xbd1b8835	-0.037971694
194	0x3d102ea9	0.03520075
195	0xbd8fbd8b	-0.07018574
196	0x3d17b881	0.03704119
197	0x3ce19904	0.027538784
198	0xbc153637	-0.009107164
199	0x3d137052	0.03599579
200	0x3c495792	0.012288945
201	0x3c3543e3	0.011063549
202	0x3cfe6230	0.031052679
203	0x3af01278	0.0018316051
204	0xbdad5bb1	-0.084647544
205	0xbcd4b22b	-0.025963863
206	0x3ce05538	0.027384385
207	0xbb8cda0d	-0.0042984546
208	0x3cf4a6e9	0.029864745
209	0x3c8b3237	0.016991718
210	0xbd63941d	-0.055561174
211	0xbd4fe15c	-0.05075203
212	0x3d77c55b	0.060490947
213	0xbbc23e69	-0.00592785
214	0x3c099c76	0.00839912
215	0x3ce63757	0.02810256
216	0xbd3862c1	-0.045016054
217	0x3d9ff39c	0.07810137
218	0x3cc04f69	0.023475366
219	0xbdb1c696	-0.086804554
220	0xbdba69ac	-0.091021866
221	0xbdcae240	-0.09906435
222	0x3d3a7f20	0.045531392
223	0xbd8f1eae	-0.069882736
224	0xbd784f37	-0.06062242
225	0x3c77f041	0.015132965
226	0xbd058ac1	-0.03260303
227	0x3d992402	0.07477571
228	0xbd54169a	-0.051779367
229	0xbc0522a9	-0.008125939
230	0x3daff57e	0.08591746
231	0x3d6280a2	0.055298455
232	0xbc416798	-0.011804484
233	0x3d0dc6db	0.03461347
234	0x3d0f39e1	0.034967307
235	0x3bf03b4a	0.0073312866
236	0xbdae52bc	-0.08511874
237	0xbd6b5da0	-0.057462335
238	0xbd825cdf	-0.0636537
239	0xbd54885d	-0.05188786
240	0xbc199279	-0.009373301
241	0xbd756904	-0.059914604
242	0xbc8cc4ad	-0.017183626
243	0xbc6cebdb	-0.014460529
244	0x3d06a5ec	0.03287308
245	0xbd6701cc	-0.056398198
246	0xbd53e515	-0.05173214
247	0x3d324b5a	0.043528892
248	0x3da54ae1	0.08070923
249	0xbcaf5304	-0.02140189
250	0x3c0bc48f	0.00853075
251	0xbd2da294	-0.042391375
252	0xbd49eb4f	-0.049296673
253	0xbce1299b	-0.02748566
254	0x3c797cc5	0.015227501
255	0xbd4e5288	-0.050371677

actor.fc3.bias f4 [3]
0	0xbcbe8b44	-0.023259766
1	0x3c63d203	0.013905051
2	0x3d0d8ff2	0.034561105

actor.fc3.weight f4 [3, 128]
0	0xbc072287	-0.008247978
1	0x3c83d9fd	0.016095156
2	0xbdac75cf	-0.08420908
3	0x3d98fccf	0.074700944
4	0x3c19987d	0.009374735
5	0x3cf9fdb3	0.030516481
6	0x3c4937ea	0.012281397
7	0xbbe27222	-0.0069105783
8	0x3d452850	0.048134148
9	0x3d12a151	0.035798375
10	0xbcc1291e	-0.023579177
11	0x3cbda384	0.02314926
12	0xbcd11c4f	-0.025526194
13	0x3d9a3430	0.07529485
14	0xbc3fe046	-0.011711186
15	0xbc0a3b75	-0.008437027
16	0x3c84cddc	0.016211443
17	0x3d7198ba	0.058983542
18	0x3bb7ee63	0.0056131347
19	0x3c32edb5	0.010920932
20	0x3c9265b7	0.017870767
21	0x3a9bfa2d	0.001190012
22	0x3d8baaba	0.06819673
23	0xbcfa5e7a	-0.030562628
24	0xbd3fc462	-0.046818145
25	0x3ce4bfd0	0.027923495
26	0x3d6345cc	0.055486485
27	0xbb37f053	-0.0028066828
28	0x3d9c532f	0.076330535
29	0x3a012486	0.0004926402
30	0xbd7a0317	-0.061038103
31	0xbb22d89f	-0.0024848355
32	0xbd2c9ab8	-0.04213974
33	0xbd5a6e46	-0.05332782
34	0x3d6deec4	0.058089033
35	0x3c54e790	0.012994662
36	0x3cf5b89b	0.029995253
37	0x3d7a0f92	0.061050005
38	0x3d3cfc8c	0.046139285
39	0x3c0a36e6	0.00843594
40	0x3c7b54e2	0.015340062
41	0x3c5e6801	0.013574601
42	0x3d7556a2	0.059897073
43	0xbd3f9ab8	-0.04677841
44	0x3c822334	0.015885927
45	0x3cfa91e2	0.03058714
46	0xbd8b159b	-0.0679123
47	0x3d1491e6	0.036271952
48	0xbcdd74f9	-0.027033316
49	0xbad5ebf4	-0.001632093
50	0xbb405d7f	-0.0029352603
51	0x3d51915a	0.05116401
52	0xbcead39a	-0.028665353
53	0xbd2fe537	-0.042943206
54	0x3d659155	0.056046803
55	0x3c4e0054	0.01257332
56	0x3c8f0ffd	0.017463678
57	0x3bba4dc5	0.0056855404
58	0xbd3913be	-0.045184843
59	0xbd4edc9e	-0.050503366
60	0x3cfa6ed9	0.030570434
61	0xbc0b5a26	-0.00850538
62	0x3dacdcb2	0.08440532
63	0x3d12ca54	0.035837486
64	0x3d373c50	0.044735253
65	0xbd1b6c94	-0.037945345
66	0xbcf91785	-0.030406723
67	0xbd63ccc2	-0.055615194
68	0xbd1ae8df	-0.03781974
69	0xbd0e91e9	-0.03480712
70	0xbd6f3688	-0.058401614
71	0xbd27ba6e	-0.040949278
72	0x3cb5ed2d	0.02220782
73	0x3cc6d765	0.02427263
74	0xbd079aa5	-0.033106465
75	0xbcb62e4f	-0.022238879
76	0xbc7abac4	-0.015303317
77	0xbbffc62b	-0.007805606
78	0xbd8e0d01	-0.06936074
79	0x3daab72c	0.083357185
80	0xbcbc003d	-0.022949332
81	0xbd8c53a9	-0.068518944
82	0x3d0eb9dc	0.034845218
83	0xbd1c39d9	-0.038141105
84	0x3cf1180e	0.029430415
85	0x3cd5ff20	0.02612263
86	0x3c711e41	0.014716686
87	0xbce1439e	-0.027498063
88	0xbd1f0b94	-0.0388294
89	0x3ca00140	0.019531846
90	0xbd5aa923	-0.053383958
91	0x3d45e8ae	0.048317604
92	0xbc88f90d	-0.01672032
93	0xbd91d7da	-0.071212485
94	0x3d7d08dc	0.061776027
95	0xbd80c568	-0.06287652
96	0xbc3ecf18	-0.011646055
97	0x3d54ebe4	0.051982775
98	0xbd6303ac	-0.055423424
99	0xbc5c087d	-0.013429758
100	0x3dab3e09	0.08361442
101	0x3beb0e8e	0.007173366
102	0x3ccdf213	0.025139844
103	0x3ace3444	0.0015732129
104	0xbd720ec1	-0.0590961
105	0x3dafb463	0.08579328
106	0xbccee219	-0.025254296
107	0x3d8ca65c	0.06867668
108	0x3d8a37db	0.06748935
109	0x3d4e71b0	0.05040139
110	0xbd08cd61	-0.03339899
111	0xbcdf32d1	-0.02724591
112	0xbd041acb	-0.032252114
113	0xbab2a3ae	-0.0013629103
114	0xbaa78879	-0.0012781761
115	0xbd477dd9	-0.048704002
116	0xbd7b88db	-0.061409812
117	0x3d856c83	0.065148376
118	0xbd261524	-0.040547505
119	0x3d075523	0.033040177
120	0x3c812b3c	0.015767686
121	0xbc94ba86	-0.018155348
122	0x3d0c687b	0.034279328
123	0xbd38e1cb	-0.045137208
124	0xbbcd0904	-0.0062571783
125	0xbd540347	-0.051760938
126	0xbd5e4698	-0.054266542
127	0xbc29ef1c	-0.0103719495
128	0x3c101b06	0.008795505
129	0x3bf76f2c	0.0075510945
130	0xbd0b5169	-0.034013186
131	0xbd9ae1e2	-0.07562615
132	0x3cd67417	0.026178403
133	0x3d3f9cf5	0.046780545
134	0xbd34aaba	-0.04410813
135	0x3c95b959	0.018276857
136	0x3d14bd4b	0.036313336
137	0xbd06bfbc	-0.032897696
138	0xbd4af022	-0.049545415
139	0x3d3e3456	0.04643663
140	0xbd3cef6f	-0.04612678
141	0x3d81e8c2	0.06343223
142	0x3bafa872	0.0053606564
143	0x3b625a18	0.0034538563
144	0x3d867326	0.065649316
145	0x3da4480f	0.080215566
146	0xbb7e876f	-0.003883805
147	0xbc6accd7	-0.014331064
148	0x3d15e78f	0.036597785
149	0x3d8d1722	0.06889178
150	0x3d01da6f	0.031702455
151	0x3d68076d	0.056647707
152	0xbd7409fb	-0.05957983
153	0x3d1d9adf	0.038477775
154	0xbd8366f9	-0.06416125
155	0x3cc8b65c	0.024501018
156	0x3d86ef81	0.065886505
157	0xbc5debb5	-0.0135449665
158	0xbd9dd934	-0.07707444
159	0x3d86d943	0.06584408
160	0x3cab0707	0.020877374
161	0xbc6fb174	-0.0146297105
162	0x3d3021d9	0.04300103
163	0xbc657865	-0.014005755
164	0xbd838054	-0.06420961
165	0x3d012a11	0.03153426
166	0x3d4f7c6d	0.05065577
167	0xbd109f89	-0.035308395
168	0xbc46504f	-0.012104108
169	0x3cb16b01	0.021657469
170	0x3d631cce	0.055447392
171	0xbd280fc8	-0.041030675
172	0x3cdf5834	0.027263738
173	0x3c5fa5a9	0.013650336
174	0xbd70bff0	-0.058776796
175	0x3c8e62ea	0.01738115
176	0xb8c45b6f	-9.363039e-05
177	0x3d4b3f2e	0.0496208
178	0x3d09cc71	0.033642236
179	0x3d0f5aa0	0.034998536
180	0xbd3cbbf3	-0.04607768
181	0x3c63489e	0.013872294
182	0xbba756e7	-0.005106795
183	0x3c42b454	0.011883814
184	0x3b0dfd41	0.0021665844
185	0xbd40820b	-0.04699902
186	0xbcab3330	-0.020898432
187	0xbd513416	-0.051075064
188	0x3d672d84	0.05643989
189	0x3d675b01	0.056483272
190	0x3d6c1bd3	0.057643723
191	0xbacff367	-0.0015865386
192	0x3d78353b	0.06059764
193	0x3d1bbb7c	0.038020596
194	0xbd808480	-0.06275272
195	0xbc12bbc8	-0.008955903
196	0x3cc81b37	0.02442704
197	0xbc8d0d4c	-0.017218255
198	0xbcc56d4a	-0.024099965
199	0x3b08f16b	0.002089585
200	0xbbd67bac	-0.0065455046
201	0xbd06e304	-0.032931343
202	0xbd51b678	-0.051199406
203	0xbd654814	-0.055976942
204	0xbd26ac2b	-0.040691536
205	0x39b2cb54	0.00034102297
206	0xbc6bb79a	-0.014387036
207	0xbb09fb6b	-0.0021054398
208	0x3d4c3424	0.049854413
209	0xbd84ae18	-0.06478518
210	0x3d4162c9	0.04721335
211	0x3d523e4b	0.05132894
212	0xbd0f23d1	-0.034946267
213	0xbd022229	-0.03177086
214	0xbd3f9032	-0.046768375
215	0xbd9ce6a2	-0.07661177
216	0xbd2d41fd	-0.04229926
217	0xbd29a288	-0.041414768
218	0x3d8a3b91	0.06749643
219	0xbc4e8bd6	-0.012606582
220	0xbd8215d3	-0.06351819
221	0x3acbbc42	0.0015543776
222	0x3d17fe45	0.037107725
223	0x3d94721d	0.07248328
224	0xbd009c55	-0.03139909
225	0x3c4abdae	0.012374325
226	0xbd06dfb1	-0.032928172
227	0xbc1a2172	-0.009407388
228	0x3d25b4c1	0.040455583
229	0x3c950afa	0.01819371
230	0x3d218489	0.039433036
231	0x3b8d04b3	0.0043035387
232	0x3d5b0539	0.053471778
233	0xbd49545a	-0.04915271
234	0xbd4e36f3	-0.050345372
235	0xbc257e62	-0.010100933
236	0x3d9899f3	0.074512385
237	0x3c9762d5	0.018479744
238	0xbd4fd070	-0.05073589
239	0xbc812cf2	-0.015768502
240	0x3d0f80de	0.035035007
241	0xbd5df306	-0.054186843
242	0x3da84a32	0.08217277
243	0x3be81dcb	0.0070836297
244	0xbcacd2ea	-0.021096665
245	0xbd100965	-0.03516521
246	0xbc9411d3	-0.018074905
247	0xbd0cf097	-0.03440913
248	0xbc72c411	-0.014817254
249	0x3cf9406b	0.030426225
250	0xbd2aca35	-0.041696746
251	0xbdaeed60	-0.085413694
252	0x3d52effa	0.05149839
253	0xbd74095a	-0.05957923
254	0x3d79ffd1	0.06103498
255	0xbd58ddc7	-0.05294588

critic.fc1.bias f4 [128]
0	0xbdbd12fb	-0.09232136
1	0x3e939a5c	0.28828704
2	0xbdbbae03	-0.091640495
3	0x3de8a9c1	0.11360503
4	0xbe145e81	-0.14489175
5	0xbe09d77e	-0.1346111
6	0xbc4fdcc7	-0.012686915
7	0x3ea09785	0.313656
8	0xbe4fa996	-0.20279536
9	0x3eaac4be	0.33353227
10	0xbe2d7ee0	-0.1694293
11	0xbe52b28e	-0.20575926
12	0xbc226f3e	-0.0099142175
13	0x3dc2c6ba	0.0951056
14	0xbea97933	-0.3310028
15	0xbe35320c	-0.17694873
16	0xbe774f07	-0.2415124
17	0x3ee62eac	0.44957483
18	0xbdf1bddd	-0.11803792
19	0xbe4bef16	-0.19915423
20	0x3ee3f21c	0.44520652
21	0x3c828950	0.015934616
22	0xbe7260b1	-0.23669697
23	0xbd962b65	-0.073324956
24	0x3caffc8f	0.021482734
25	0xbd1a96b4	-0.037741378
26	0xbec6b63b	-0.38810906
27	0x3dad4da2	0.08462073
28	0x3e45e0de	0.19324061
29	0x3dd3f5a0	0.103495836
30	0x3e9ca9a7	0.30598184
31	0x3dda4d88	0.10659319
32	0xbd7c8920	-0.06165421
33	0x3e9be31e	0.30446714
34	0xbe2b3771	-0.16720368
35	0x3e5ec0fa	0.21753302
36	0x3e62aca1	0.22136165
37	0xbd272d11	-0.040814463
38	0x3dc7a76c	0.0974873
39	0xbe7363e1	-0.2376857
40	0x3e7f12ff	0.2490959
41	0x3e4232bb	0.18964665
42	0x3ca80c32	0.020513628
43	0xbe8e36e3	-0.2777625
44	0xbda2ef55	-0.07955805
45	0xbe9e0d4a	-0.30869514
46	0xbe46b8f8	-0.19406497
47	0x3e87e207	0.26539633
48	0x3e415ae7	0.18882333
49	0x3e71664a	0.23574176
50	0xbe22940c	-0.15876788
51	0xbde9cf20	-0.11416459
52	0xbe8246c1	-0.25444606
53	0xbd324138	-0.04351923
54	0x3e081e04	0.132927
55	0x3e6583b7	0.22413526
56	0x3dcfe810	0.10151684
57	0xbebd1eaa	-0.36937457
58	0xbe8b631c	-0.27224052
59	0x3e4e96ec	0.2017476
60	0xbd97cf11	-0.07412542
61	0x3e7fb879	0.24972714
62	0x3e40d91c	0.1883282
63	0xbebb5e66	-0.36595458
64	0xbee915a1	-0.45524314
65	0x3d9f4a3b	0.0777783
66	0xbd63a4b0	-0.05557698
67	0x3e7d7d3c	0.24754804
68	0x3ddb1b35	0.10698549
69	0xbef80bae	-0.4844641
70	0x3c5f8b8e	0.013644112
71	0xbdc9dd1f	-0.098566286
72	0x3e9242d4	0.2856661
73	0x3cca1a3b	0.02467071
74	0xbdd5e352	-0.104437485
75	0x3dc794b1	0.097451575
76	0x3d8bb6d2	0.068219796
77	0x3e1da697	0.1539558
78	0xbdd0066c	-0.10157475
79	0xbe0d1355	-0.13776906
80	0x3e478c57	0.19487129
81	0x3da37d33	0.07982864
82	0x3ceaf7f0	0.028682679
83	0x3ed9ad97	0.4251525
84	0xbe5d393d	-0.21603866
85	0x3d82bf24	0.063841134
86	0xbe7c91fb	-0.24665062
87	0xbdea0d38	-0.114283025
88	0x3cae69bc	0.021290652
89	0xbe9886e0	-0.297904
90	0x3e481efd	0.19543071
91	0x3a12feda	0.0005607434
92	0x3e7def3a	0.24798289
93	0xbda066b6	-0.078320906
94	0x3d1148ce	0.035469823
95	0xbddbda66	-0.107350156
96	0xbc65ecfe	-0.014033554
97	0xbe86c222	-0.26319987
98	0x3e641621	0.22274067
99	0x3dacb126	0.08432226
100	0xbeb24cb9	-0.3482416
101	0xbe1bb56d	-0.15205927
102	0xbe6d9f36	-0.23205265
103	0x3e639f10	0.22228646
104	0xbdefb64f	-0.117046945
105	0xbdf87b9f	-0.12132954
106	0x3cd2f0c8	0.02574958
107	0xbe45a8d6	-0.19302687
108	0x3dcfe73a	0.10151525
109	0x3e0e4a81	0.13895608
110	0xbe80cac7	-0.25154707
111	0x3cec0b81	0.02881408
112	0x3e36c253	0.17847566
113	0xbeb1641f	-0.346467
114	0xbe3a00e4	-0.18164402
115	0xbecbf4dc	-0.3983525
116	0x3d67b679	0.056570504
117	0x3dd5b2e3	0.104345106
118	0xbe376a0e	-0.1791155
119	0xbe2e4289	-0.17017569
120	0xbca8fb42	-0.020627622
121	0xbe2b6431	-0.16737439
122	0x3dfbc851	0.12294067
123	0x3db08cfc	0.08620641
124	0x3dd336d9	0.10313196
125	0xbe6ba477	-0.23011957
126	0xbe9e650a	-0.30936462
127	0xbe2381a8	-0.15967429

critic.fc1.weight f4 [128, 18]
0	0xbe3223f3	-0.17396526
1	0x3ed6441a	0.41848832
2	0x3e965ac2	0.29366118
3	0xbe47577f	-0.19466971
4	0x3e1cbf5a	0.1530737
5	0x3dad44a7	0.0846036
6	0x3e2d4b29	0.16923203
7	0xbe1176f9	-0.1420554
8	0xbea8326c	-0.3285097
9	0xbe507557	-0.20357262
10	0xbe920124	-0.28516495
11	0x3e1db473	0.15400867
12	0x3d955cde	0.07293104
13	0x3c454260	0.012039751
14	0x3ed7c976	0.4214589
15	0xbcfb48e8	-0.030674413
16	0x3e398513	0.1811717
17	0xbdf2f9c9	-0.11864049
18	0x3debefcb	0.11520346
19	0x3eaea8f1	0.34113267
20	0xbd800dd0	-0.062526345
21	0xbe9839af	-0.2973151
22	0xbdd38b97	-0.10329359
23	0x3e6615d0	0.22469258
24	0xbdfa3f95	-0.122191586
25	0x3e220889	0.15823568
26	0x3de2ae00	0.11068344
27	0x3e5f61b0	0.21814609
28	0x3e6b0631	0.2295158
29	0x3d3990ec	0.045304224
30	0x3f0a7081	0.5407792
31	0xbdcea6ac	-0.10090384
32	0xbe3bf5be	-0.18355462
33	0x3f2e8a34	0.6817963
34	0xbd901068	-0.07034379
35	0x3d871d1c	0.06597349
36	0x3ddbeb57	0.10738247
37	0xbeaafa05	-0.33393875
38	0x3bb53937	0.005530502
39	0x3e54af65	0.20770033
40	0x3df44d7b	0.11928841
41	0x3d038eec	0.032118723
42	0xbe1d3caa	-0.15355173
43	0xbcafa05f	-0.021438776
44	0x3cf1cd04	0.029516704
45	0xbd913a17	-0.07091158
46	0xbea66bd3	-0.32504138
47	0xbe4292d1	-0.19001319
48	0xbe48e619	-0.19619025
49	0x3c230d00	0.00995183
50	0x3efbbff7	0.49169895
51	0x3e4e155b	0.20125334
52	0x3e59f477	0.21284662
53	0x3c8be640	0.017077565
54	0x3dc6fd15	0.0971624
55	0xbe044675	-0.12917502
56	0xbdb8f1c3	-0.090304874
57	0xbe868957	-0.26276657
58	0x3e537dfa	0.20653525
59	0x3e146425	0.14491327
60	0x3d709ed2	0.058745213
61	0x3c13dedb	0.009025301
62	0x3e62cacc	0.22147673
63	0x3d907d41	0.0705514
64	0xbe41d0a1	-0.18927242
65	0xbe1ff322	-0.15620092
66	0x3e9e4775	0.30913892
67	0x3d183c89	0.037167106
68	0x3e5acadf	0.21366452
69	0xbd8c4903	-0.068498634
70	0x3ccccbd8	0.024999544
71	0x3d872411	0.06598676
72	0xbe4d2b05	-0.20035942
73	0xbeb2a279	-0.34889582
74	0x3c9dffa4	0.019286938
75	0x3d97cb80	0.074118614
76	0x3e85cbaf	0.2613196
77	0xbe3c80f8	-0.18408573
78	0xbd913bff	-0.070915215
79	0xbd7b6360	-0.06137407
80	0xbbc6bfe2	-0.0060653547
81	0xbe7e4918	-0.2483257
82	0xbed68fbb	-0.41906533
83	0x3d98854a	0.07447298
84	0xbe272f2a	-0.16326585
85	0xbe63b51f	-0.22237061
86	0x3ee0b13f	0.43885228
87	0xbd26328b	-0.040575545
88	0x3dcc1092	0.09964098
89	0xbe145ff2	-0.14489725
90	0xbe4de42c	-0.20106572
91	0x3e1f0a10	0.15531182
92	0x3c9d774c	0.019221924
93	0x3e28d711	0.16488291
94	0xbea8ae1c	-0.32945335
95	0xbe79b6ba	-0.24386111
96	0xbe74295a	-0.238439
97	0xbca2265a	-0.019793678
98	0x3c8aeb99	0.016958045
99	0x3eaaacbd	0.33334914
100	0xbd49cb1c	-0.049265966
101	0xbdad50d4	-0.08462682
102	0x3eb2de9c	0.34935462
103	0x3e86d02c	0.26330698
104	0x3d23256c	0.03983061
105	0x3eb450cd	0.35217896
106	0xbd99c7bc	-0.075087994
107	0x3d352a8b	0.044230025
108	0xbe28e9c7	-0.16495429
109	0x3e748189	0.23877539
110	0x3e54a40c	0.20765704
111	0x3d73fab4	0.05956526
112	0x3d8fa7f2	0.07014455
113	0x3c95fa9b	0.018307975
114	0x3d9bbfad	0.07604919
115	0xbe05d957	-0.1307119
116	0xbea30c45	-0.31845298
117	0xbe396c51	-0.18107726
118	0xbe1edbfb	-0.15513603
119	0x3e5d4ad9	0.21610583
120	0xbe1a1b9e	-0.15049598
121	0xbdde2ec4	-0.108487636
122	0x3f0b997a	0.5453106
123	0xbe3a0810	-0.18167138
124	0xbe335349	-0.1751224
125	0x3db15238	0.0865826
126	0x3e588885	0.21145828
127	0x3e23e1a9	0.16004051
128	0xbdb518f6	-0.088426515
129	0xbd2950b9	-0.04133675
130	0xbe1103fd	-0.14161678
131	0xbe660243	-0.224618
132	0x3db8c3f8	0.09021753
133	0x3de08df9	0.10964579
134	0xbdfca910	-0.123369336
135	0xbcd2c5df	-0.025729118
136	0xbd9ee226	-0.07757978
137	0xbe47ba3a	-0.19504634
138	0xbe0c15cf	-0.13680194
139	0x3d64bd93	0.055844855
140	0x3ea37934	0.31928408
141	0x3e8452a4	0.258443
142	0xbe396d9b	-0.18108217
143	0xbdca80c7	-0.098878436
144	0xbeb84ac9	-0.35994557
145	0xbd88461f	-0.066539995
146	0xbe7f7eba	-0.24950686
147	0xbe5b90eb	-0.21442
148	0xbeb12c59	-0.34604147
149	0xbe38a8d6	-0.18033156
150	0xbe33cc65	-0.17558439
151	0x3cf9755d	0.030451471
152	0xbcdb7db3	-0.026793336
153	0x3e27fb3c	0.16404432
154	0xbe471a26	-0.19443569
155	0x3c896d28	0.016775683
156	0xbe16f8d3	-0.14743356
157	0xbe46bb59	-0.19407405
158	0x3e22a549	0.15883364
159	0x3dc460b2	0.09588756
160	0xbd214c3c	-0.039379343
161	0x3e9918d5	0.29901758
162	0xbd8febe1	-0.07027412
163	0xbd55c011	-0.052185122
164	0x3e0440db	0.12915365
165	0xbd90fe15	-0.07079712
166	0xbd37dd03	-0.044888508
167	0x3d351abf	0.04421496
168	0x3c3e36b4	0.011609722
169	0x3dd2573f	0.10270547
170	0x3d66676d	0.05625098
171	0xbde5aac0	-0.112142086
172	0x3f16be86	0.58884466
173	0xbe233e9d	-0.15941854
174	0x3e5c1ce9	0.21495403
175	0xbdbebc84	-0.093133
176	0xbeb161b5	-0.34644857
177	0xbe51e293	-0.20496587
178	0x3db7579e	0.089522585
179	0xbd3b4854	-0.045723274
180	0xbe69cadc	-0.22831291
181	0xbb90bbf5	-0.0044169375
182	0xbdd2ae73	-0.1028718
183	0xbe205d6f	-0.15660642
184	0x3e3eafa5	0.1862169
185	0xbd712562	-0.05887354
186	0xbb7e376f	-0.0038790365
187	0xbdaf925f	-0.0857284
188	0xbe4881c2	-0.19580749
189	0xbe89af9e	-0.26891798
190	0xbdcc5760	-0.09977603
191	0x3e3584a1	0.17726375
192	0x3d0c876e	0.034308843
193	0xbdb76684	-0.089551
194	0x3b623672	0.0034517315
195	0xbeb12dd8	-0.34605289
196	0xbe02b78a	-0.12765327
197	0xbe79b15e	-0.24384066
198	0xbd930bcf	-0.07179987
199	0xbe77c206	-0.24195108
200	0x3e534b2a	0.20634142
201	0xbe3a494e	-0.18192026
202	0x3caf2f49	0.021384852
203	0xbd549685	-0.05190136
204	0x3e5087d4	0.20364314
205	0x3cf488a1	0.029850306
206	0xbd866d67	-0.065638356
207	0xbd9945f4	-0.074840456
208	0xbec30ae0	-0.38094234
209	0xbda5c168	-0.0809353
210	0x3a41ae7d	0.00073883665
211	0x3ddc64a7	0.107613854
212	0x3e70a35c	0.23499817
213	0x3e43988d	0.19101162
214	0x3e1d33e7	0.1535183
215	0xbd836e56	-0.06417529
216	0xbde5e0af	-0.112244956
217	0xbe40a4c2	-0.1881285
218	0x3d827e84	0.06371787
219	0x3dc673f8	0.09690088
220	0xbe4be1b8	-0.19910324
221	0xbe8eac52	-0.27865845
222	0xbe0822d7	-0.1329454
223	0x3bc156be	0.005900233
224	0x3e32cdf4	0.17461377
225	0x3d30e317	0.04318532
226	0x3d880493	0.066414975
227	0xbcd71710	-0.026256114
228	0x3e1a9400	0.1509552
229	0x3da4a50f	0.08039295
230	0x3f11b82f	0.56921667
231	0x3eb7ced5	0.35899988
232	0xbe550af8	-0.20804965
233	0x3e818bb4	0.25301898
234	0x3ef0e350	0.47048426
235	0x3f096038	0.53662443
236	0x3df8230a	0.12116058
237	0x3d4b50b4	0.04963751
238	0xbcf57b7e	-0.029966112
239	0xbeac3422	-0.33633524
240	0xbdc5a6d3	-0.0965096
241	0xbdde344d	-0.10849819
242	0x3e86261f	0.2620096
243	0xbdb8fb2d	-0.09032283
244	0xbe12dba5	-0.143416
245	0xbe0aab84	-0.1354199
246	0xbd985e06	-0.074398085
247	0xbd4ca429	-0.049961243
248	0x3ead9a62	0.33906847
249	0xbd0c4ae8	-0.034251124
250	0xbe4746a6	-0.19460544
251	0xbdeae747	-0.11469894
252	0xbec94f15	-0.39318147
253	0xbd302993	-0.0430084
254	0x3e37d305	0.17951591
255	0xbe23cfe6	-0.15997276

critic.fc2.bias f4 [128]
0	0xbd804f76	-0.06265156
1	0x3d32c5ee	0.04364579
2	0x3d26212c	0.04055898
3	0x3e8c4bdb	0.27401623
4	0xbd72f8da	-0.059319355
5	0xbd736245	-0.05941989
6	0x3d3aab8b	0.045573752
7	0x3e83438d	0.25637475
8	0x3ea8f5cf	0.33000037
9	0x3cd468d8	0.0259289
10	0x3dbe0d8b	0.09279927
11	0xbd611344	-0.054950014
12	0x3e19f57b	0.1503505
13	0x3e495c65	0.19664152
14	0xbdaa8f23	-0.083280824
15	0x3d836852	0.06416382
16	0x3d10f180	0.035386562
17	0xbe0e5ca3	-0.13902526
18	0x3d45dbfb	0.048305493
19	0x3cf0693b	0.029347053
20	0xbdd0bd4d	-0.10192356
21	0xbd953bd4	-0.07286802
22	0x3dbff86e	0.09373556
23	0xbdbaf5c5	-0.09128908
24	0xbd302f75	-0.04301401
25	0xbd29d98e	-0.041467242
26	0x3c1f9593	0.009740251
27	0xbd6fdd4b	-0.05856065
28	0x3db67101	0.089082725
29	0xbd1a7b97	-0.03771552
30	0x3d69c9cd	0.057077218
31	0xbd46fc74	-0.0485806
32	0x3e7de4d1	0.24794318
33	0x3e4d8c44	0.20073038
34	0xbe8ee060	-0.2790556
35	0xbd75dff8	-0.060028046
36	0xbe885272	-0.266254
37	0x3cefeaf7	0.029286845
38	0x3d203ede	0.039122455
39	0x3d446dca	0.047956266
40	0xbe44cd92	-0.19219044
41	0x3da3962c	0.079876274
42	0xbc498924	-0.012300763
43	0x3e93461d	0.2876443
44	0xbd2c1ef7	-0.042021718
45	0x3d88ac07	0.066734366
46	0x3d828529	0.063730545
47	0xbde2a34c	-0.11066303
48	0xbce98f83	-0.028510815
49	0xbe76da3e	-0.2410669
50	0x3d2f8fe5	0.042861838
51	0xbe8c6d22	-0.27427012
52	0x3cd4232e	0.025895681
53	0x3d54e4af	0.051975902
54	0x3bd10953	0.0063792854
55	0xbe1d361a	-0.1535267
56	0xbd0682af	-0.032839473
57	0xbc8e94eb	-0.017404994
58	0xbe9ace8b	-0.30235705
59	0x3e2e0056	0.16992316
60	0x3d2af1fa	0.041734673
61	0x3c0ce2a1	0.008598954
62	0xbd88d72a	-0.06681664
63	0xbd368a15	-0.04456528
64	0xbca40fb6	-0.020027023
65	0x3cb8808e	0.022522237
66	0x3e21680b	0.15762345
67	0x3c4a9131	0.012363718
68	0xbe338862	-0.17532495
69	0x3b9981c2	0.004684658
70	0xbce4f1f9	-0.027947413
71	0xbd84f083	-0.064911865
72	0xbd11b2af	-0.035570797
73	0xbdab26f8	-0.08357042
74	0x3d0ad67b	0.03389595
75	0x3e20e267	0.15711366
76	0xbbc822c8	-0.006107662
77	0x3e4d24a5	0.2003351
78	0x3bf4b9c7	0.0074684354
79	0x3d3eef12	0.046614714
80	0xbe56ca90	-0.20975709
81	0xbd50443a	-0.050846316
82	0x3e0cbae0	0.13743162
83	0xbc9aaecc	-0.018882178
84	0x3d8b1e23	0.067928575
85	0x3d956a0e	0.07295619
86	0xbd6aca55	-0.057321865
87	0xbe8252d0	-0.25453806
88	0x3e52cb25	0.20585306
89	0xbd845dc0	-0.06463194
90	0x3d0cc98c	0.034371898
91	0x3ddc0917	0.10743921
92	0x3e31601f	0.17321824
93	0x3e3ec5c4	0.18630129
94	0x3e1c537f	0.15266226
95	0x3d8d0c36	0.06887095
96	0x3e28c1ea	0.16480222
97	0x3d0f9617	0.035055246
98	0xbe7e208c	-0.24817103
99	0xbda11d4c	-0.07866916
100	0xbdb3cdbf	-0.08779477
101	0x3e336465	0.17518766
102	0xbd5d4a0b	-0.05402569
103	0x3dba7a26	0.09105329
104	0x3d8e4d82	0.06948377
105	0x3b0384db	0.0020068202
106	0xbc590752	-0.013246374
107	0x3a375132	0.0006992995
108	0xbe6aaa93	-0.22916631
109	0x3dd1259d	0.10212252
110	0x3e1330ca	0.1437408
111	0xbcc69773	-0.024242138
112	0xbddd1167	-0.10794335
113	0x3d80709b	0.06271478
114	0x3cd14dda	0.025549818
115	0xbd78c0f5	-0.060730893
116	0xbd3f5e6b	-0.046720903
117	0x3cdbedae	0.026846733
118	0x3e3bdf17	0.18346821
119	0x3be076a4	0.0068500806
120	0xbe5ed0d4	-0.21759349
121	0x3e48da4f	0.19614528
122	0xbcf128d8	-0.029438421
123	0xbe512d1f	-0.20427369
124	0x3d6a838e	0.057254367
125	0xbca6ea52	-0.020375405
126	0x3e132f8d	0.14373608
127	0xbd72f876	-0.059318982

critic.fc2.weight f4 [128, 128]
0	0xbbae905e	-0.0053272685
1	0x3d70f9af	0.058831867
2	0x3d89d7e1	0.06730629
3	0x3d4ed065	0.05049171
4	0xbcee483c	-0.029087178
5	0x3e8feba5	0.2810947
6	0xbd2926aa	-0.04129664
7	0xbd880fc7	-0.06643634
8	0x3cc26ace	0.023732569
9	0xbdb2dd4e	-0.08733617
10	0xbde29f49	-0.110655375
11	0x3c337738	0.010953717
12	0x3dcc68fb	0.09980961
13	0xbca7a45d	-0.020464117
14	0xbe0b7be3	-0.13621478
15	0x3d8d14d6	0.0688874
16	0xbd5c7a06	-0.053827308
17	0xbd30322f	-0.04301661
18	0xbe00eeae	-0.12591049
19	0x3dac5012	0.0841371
20	0x3e045606	0.1292344
21	0x3d99112a	0.07473977
22	0xbd299c75	-0.041408975
23	0x3b823aaf	0.003974281
24	0xbe9b6d1a	-0.30356675
25	0xbdc5b5ef	-0.09653842
26	0x3d17558a	0.03694681
27	0xbdf95593	-0.12174525
28	0x3cf2e40c	0.029649757
29	0xba0a64b7	-0.000527929
30	0x3d860cdb	0.06545421
31	0xbdb50838	-0.08839458
32	0xbde17ae3	-0.11009767
33	0xbb3a6a72	-0.0028444794
34	0x3daa7163	0.08322408
35	0xbd358248	-0.0443137
36	0xbcb45d16	-0.022017043
37	0x3e92cdbf	0.28672597
38	0xbe0ca1fc	-0.13733667
39	0x3dc8e6e8	0.09809667
40	0x3e4f3276	0.20234093
41	0x3d105734	0.035239413
42	0xbe10f751	-0.14156844
43	0x3d165063	0.036697756
44	0x3d6382d7	0.0555447
45	0x3bc895f9	0.0061213938
46	0x3cfbf010	0.03075412
47	0x3dd960e7	0.10614186
48	0xbd9e8ad4	-0.07741323
49	0x3e385369	0.18000568
50	0xbce615bb	-0.028086534
51	0xbd2405a7	-0.040044453
52	0x3d49b409	0.04924396
53	0xbca9bd36	-0.020720106
54	0x3e17ec4e	0.14836237
55	0x3ddf5642	0.10905124
56	0xbd6196d5	-0.055075485
57	0xbd9bae0f	-0.076015584
58	0x3d83adf4	0.06429663
59	0x3cd83794	0.02639369
60	0xbe09d74a	-0.13461033
61	0x3dd9260c	0.1060296
62	0xbdb38e08	-0.08767325
63	0xbd05ac0f	-0.03263479
64	0xbd213d3f	-0.03936505
65	0x3cb1dd15	0.021711865
66	0x3aca5337	0.0015436177
67	0x3d610142	0.05493284
68	0x3d42af3c	0.047530398
69	0x3d384020	0.04498303
70	0x3c5ccf0c	0.013477098
71	0xbbf76f84	-0.0075511355
72	0xbc5a8683	-0.013337734
73	0xbe017184	-0.12640959
74	0xbdb03bd8	-0.08605164
75	0x3c69eaa0	0.01427713
76	0x3cd51184	0.026009329
77	0x3d0ebcca	0.034848012
78	0xbd01045d	-0.0314983
79	0xbe2941d6	-0.1652902
80	0xbd85945e	-0.065224394
81	0x3d11b210	0.035570204
82	0xbd5b6be2	-0.053569682
83	0x3e636867	0.22207795
84	0xbd7220c4	-0.05911328
85	0xbda58e5d	-0.08083794
86	0x3d5cd906	0.053917907
87	0x3d1b2d10	0.03788477
88	0x3dc42f48	0.09579331
89	0xbc8e7d42	-0.017393712
90	0x3d83db22	0.06438281
91	0x3e445ba5	0.19175585
92	0xbd422bf2	-0.04740519
93	0x3dc20597	0.094737224
94	0xbe1d0421	-0.15333606
95	0xbbcc3968	-0.0062324293
96	0xbdfb3054	-0.12265077
97	0xbdf8b0fd	-0.12143133
98	0x3dad8ba9	0.08473904
99	0x3d83fa53	0.0644423
100	0x3d192d1c	0.037396535
101	0x3d49cca9	0.049267445
102	0xbd5d6a79	-0.05405662
103	0x3cb3887a	0.021915663
104	0xbdd11aa1	-0.10210157
105	0xbd502d0b	-0.050824206
106	0xbdad01f3	-0.084476374
107	0x3c8c8248	0.017151967
108	0x3e2d317b	0.16913407
109	0xbdb59d4b	-0.08867892
110	0xbd120bbf	-0.035655733
111	0x3ce66f6d	0.028129304
112	0x3b2da626	0.0026496737
113	0x3e283f0c	0.164303
114	0xbd3da2d8	-0.046297878
115	0xbd3f3c1c	-0.046688184
116	0xbde6c652	-0.11268295
117	0xbd96ffab	-0.073729835
118	0xbd26c424	-0.040714398
119	0xbd34c351	-0.04413158
120	0xbd82f231	-0.063938506
121	0xbcaffad3	-0.021481907
122	0xbd8ec390	-0.06970894
123	0xbcc99f05	-0.02461196
124	0xbd0a9bfe	-0.033840172
125	0x3d1f1a27	0.0388433
126	0xbc50f128	-0.012752809
127	0xbdb0703a	-0.086151555
128	0xbc116f65	-0.008876656
129	0xbdc20681	-0.09473897
130	0xbd9a08d0	-0.07521212
131	0xbe664713	-0.2248805
132	0xbd739e1f	-0.059476968
133	0xbe80760e	-0.2509007
134	0x3d43fa17	0.047845926
135	0xbd5d99b9	-0.05410168
136	0xbe81e77d	-0.25371924
137	0x3c597689	0.01327289
138	0x3e0f2b18	0.13981283
139	0xbe56a853	-0.20962648
140	0xbdf1b2e9	-0.118017025
141	0x3cec0521	0.02881104
142	0xbc64b403	-0.013958934
143	0xbd85217a	-0.06500526
144	0x3dcacedc	0.099027365
145	0x3d32f4e6	0.043690585
146	0x3c7213e6	0.014775252
147	0x3d86ec5a	0.06588049
148	0xbdfb225e	-0.122624144
149	0x3e14202a	0.14465395
150	0x3db8ffbb	0.09033152
151	0x3b1590e6	0.0022821962
152	0x3d8025cb	0.062572084
153	0x3e12a3e9	0.1432034
154	0x3dd26afe	0.102743134
155	0x3d83d5a9	0.06437237
156	0x3da34859	0.079727836
157	0x3c91b9c9	0.017788785
158	0x3dc81492	0.097695485
159	0xbe53f36f	-0.20698331
160	0x3def24de	0.11676954
161	0x3dc2cae6	0.09511356
162	0xbd598859	-0.053108547
163	0x3dcd710d	0.10031328
164	0xbe53d57c	-0.20686907
165	0x3c421345	0.0118454145
166	0x3d28392d	0.041070152
167	0x3e30f5a6	0.17281207
168	0x3c5e4091	0.0135651985
169	0xbdf6f359	-0.12058134
170	0x3cec8095	0.028869906
171	0x3de91fdb	0.11383029
172	0xbd96f5c4	-0.07371095
173	0x3d765286	0.060137294
174	0xbe58a926	-0.21158275
175	0xbd39941a	-0.045307256
176	0x3d47560d	0.04866605
177	0x3b014b52	0.0019728732
178	0x3dbcd5a3	0.092204355
179	0x3e3dab22	0.18522313
180	0x3d61cb9c	0.055125818
181	0x3c34f850	0.01104553
182	0xbd3aa195	-0.045564253
183	0xbd66f5d0	-0.05638677
184	0x3e64712e	0.223088
185	0x3de94d5d	0.11391709
186	0xbb40ee55	-0.0029438932
187	0xbd8fdf6f	-0.070250385
188	0x3d56d1dd	0.052446235
189	0x3d6273ee	0.05528634
190	0x3e3f47f1	0.18679787
191	0x3d6fd421	0.05855191
192	0x3d0a53d4	0.03377135
193	0xbd5ad350	-0.05342418
194	0xbe11cff0	-0.14239478
195	0x3a815d02	0.0009869637
196	0xbde727b5	-0.112868704
197	0xbd9522e6	-0.07282047
198	0xbccde106	-0.025131714
199	0xbd421c0f	-0.04739004
200	0xbd8459ff	-0.06462478
201	0xbe0e0298	-0.13868177
202	0xbdc300a2	-0.09521605
203	0x3dae6d79	0.08516974
204	0xbb146ff4	-0.0022649737
205	0xbc955622	-0.018229548
206	0x3cb65761	0.022258462
207	0x3e23cf19	0.1599697
208	0x3df78ac7	0.120870166
209	0xbdfea252	-0.12433304
210	0xbdc37bac	-0.09545073
211	0x3cdae68a	0.026721258
212	0x3a0f9267	0.0005476833
213	0x3e08b655	0.13350804
214	0x3d9f2c56	0.07772128
215	0xbe5d043e	-0.2158365
216	0xbd088e06	-0.03333857
217	0x3d991300	0.07474327
218	0xbd94e4d3	-0.07270207
219	0xbe164006	-0.1467286
220	0x3e1a2280	0.15052223
221	0xbd9d575b	-0.07682677
222	0x3c8dd591	0.01731375
223	0xbc1ee24e	-0.00969751
224	0x3e1b9868	0.15194857
225	0x3de6aa71	0.11262978
226	0x3e2264ed	0.15858813
227	0xbd706b83	-0.05869628
228	0xbda0ec80	-0.07857609
229	0xbe931857	-0.28729507
230	0x3d3d0771	0.046149675
231	0x3d067fbc	0.03283666
232	0xbaad680b	-0.001322986
233	0xbb86c4cc	-0.0041128155
234	0xbdc1e9b2	-0.09468402
235	0x3d60fe98	0.0549303
236	0x3bb0c447	0.005394492
237	0x3dc42115	0.095766224
238	0xbdbfad33	-0.09359207
239	0xbe66f13c	-0.22552961
240	0xbddd04c5	-0.10791925
241	0xbe2b4f24	-0.16729409
242	0xbceaffc9	-0.028686421
243	0xbc8e3be3	-0.01736254
244	0x3d628779	0.055304978
245	0xbe508ae7	-0.20365487
246	0x3d979c2d	0.07402835
247	0x3d966d05	0.073450126
248	0x3d6a5c70	0.05721706
249	0x3dd821ed	0.10553346
250	0x3de0be99	0.109738536
251	0xbd683f15	-0.056700785
252	0xbd604cd3	-0.054760765
253	0xbda6974a	-0.08134325
254	0x3cb64b79	0.022252785
255	0x3d7584c2	0.05994106
