rl_model.safetensors (safetensors, 154576 bytes, 11 tensors)

actor.fc1.bias f4 [128]
000000 be 5d 82 bd a1 fe d3 bd 5f 4e 5e 3e d4 93 54 3d
       -0.06365536 -0.10351301 0.21709584 0.051898792
000010 19 42 a6 3d 3b 3e b6 3d 71 e6 1b be bf 8c 7a 3d
       0.08118076 0.08898588 -0.15224625 0.061169382
000020 fe 13 66 bd 7c 4d 68 3e 1d ba 1d 3e ea c5 04 3e
       -0.05617141 0.22685808 0.15403028 0.12966123
000030 aa bd 73 3d 47 07 09 be ae 21 14 3d 54 5d 6d 3e
       0.05950705 -0.13381682 0.036164932 0.23180133
000040 34 c3 12 3e 12 5d 10 3e 14 a4 4d be d7 8e d3 bd
       0.14332277 0.14098004 -0.20082122 -0.10329979
000050 99 88 b7 3d 72 9b 01 bd 0b d1 77 be f8 58 e4 bd
       0.08961601 -0.031642385 -0.24200837 -0.11149782
000060 43 77 44 be da ad 4d 3e 2d bf 30 bd d3 07 41 3b
       -0.1918612 0.2008585 -0.04315107 0.0029454126
000070 62 00 3e bd 5c 76 d1 bc 04 87 16 3d aa f9 51 bd
       -0.046387084 -0.025569133 0.036749855 -0.05126349
000080 6e 56 16 3e 73 b1 91 3d 76 e2 9a 3d 20 01 4e 3e
       0.14681408 0.07113924 0.07562725 0.20117617
000090 26 4a b2 3d 4d 95 3e be 7f eb 89 bd b8 59 0f be
       0.08705549 -0.18611641 -0.067343704 -0.13999069
0000a0 d7 92 14 3e a7 4f 9f 3c d3 78 8a bb 3a cd 63 3e
       0.1450914 0.01944716 -0.004225829 0.22246256
0000b0 6a 6c 15 be 9c 7a 4b 3b 9b 5b b4 3c bd 15 62 be
       -0.14592138 0.0031048423 0.022016337 -0.22078605
0000c0 ea 3b 06 3e 42 50 b2 3d 05 b7 68 3e 63 c6 aa 3d
       0.13108793 0.08706714 0.22726066 0.083386205
0000d0 33 08 b8 3d 1f 8b 29 3e 6d 3f 41 3d e9 6f da bb
       0.08985939 0.16556977 0.04717963 -0.0066661728
0000e0 19 44 68 be 55 f6 11 be 49 4d 5a be fa 57 64 3e
       -0.22682227 -0.14254124 -0.21318544 0.22299185
0000f0 6a fa c6 bd 5e b8 51 be ed 67 dc bd 62 10 4c 3e
       -0.097157314 -0.20480487 -0.1076201 0.19928125
000100 a7 c4 0e 3e db 8a d8 bd eb db cf 3d e8 06 5c be
       0.13942204 -0.105733596 0.10149368 -0.2148701
000110 b4 a0 18 3c 85 34 18 3e 8b 72 13 be c2 ca 15 3c
       0.009315658 0.14863785 -0.14399163 0.0091425795
000120 d6 93 a9 bd 8f e5 21 3e 9e b6 96 3d c1 2f a0 bd
       -0.082801506 0.15810226 0.0735905 -0.07821608
000130 a6 32 22 be 3a 3f 46 be 36 2b 0a 3e 43 84 1d bd
       -0.15839633 -0.19360057 0.13493046 -0.038456213
000140 92 f5 1e 3d 33 72 74 bd d0 f0 06 3d 48 6f 47 3d
       0.038808413 -0.05967922 0.0329445 0.04869011
000150 aa 76 e0 3c de 11 bd 3d ba 6c 2e 3e b2 a6 a4 bd
       0.027400333 0.092319235 0.17033663 -0.08039607
000160 49 b7 94 3d 5d 9c da 3d bd 87 21 be 75 37 62 be
       0.07261521 0.10674355 -0.15774436 -0.22091468
000170 04 82 b6 bd d9 f3 5e 3c c3 86 09 3d 71 ff 1e be
       -0.08911517 0.0136079425 0.033575784 -0.1552713
000180 f6 59 55 3e 4d cc e6 bd 04 94 95 3d 51 b7 fc bd
       0.20835099 -0.11269436 0.07303622 -0.12339652
000190 cd 7c 52 3e 96 9d 7b be 57 9a 2f 3d 71 69 6c bd
       0.2055542 -0.24571833 0.0428718 -0.057717744
0001a0 25 ef 2f be 1f 91 0a 3e 97 b0 8d 3c 00 b0 10 3e
       -0.1718107 0.13531922 0.017296119 0.14129639
0001b0 d8 9f 0d 3e d7 c0 b9 bd 4b aa ef 3d da b7 0d be
       0.13830507 -0.090699844 0.11702403 -0.13839665
0001c0 56 f5 d7 bd 2a 98 71 3e 71 81 0c be b9 18 04 be
       -0.10544841 0.23593202 -0.13721253 -0.12900056
0001d0 ef 83 2a be a7 b5 f6 bd 04 14 5b bd 51 2d 2b be
       -0.16651891 -0.12046366 -0.053485885 -0.16716506
0001e0 78 ee e9 3d 82 a6 65 bd fe 1a b6 3b e3 7a a9 bd
       0.114224374 -0.056066997 0.005557417 -0.08275392
0001f0 55 a4 8f 3d 88 a0 4e 3e 16 71 2a 3e b0 b5 6e bd
       0.07013766 0.20178425 0.16644701 -0.05827874

actor.fc1.weight f4 [128, 18]
000000 29 5e 6b 3e 59 c6 63 be f5 e4 24 3d 53 34 ed 3d
       0.22985138 -0.22243632 0.040257413 0.11582246
000010 0d 9a 75 be 42 fb e8 bd 67 73 40 be d5 2d 2c 3e
       -0.23984547 -0.113760486 -0.18794023 0.16814359
000020 66 0f a3 bd 0e d3 63 3e b9 59 dc bd a8 b7 bc bc
       -0.079619214 0.2224848 -0.10759301 -0.023036793
000030 bd 2f 47 3e 2a 36 6c 3e 35 6e dc 3c 41 e5 fd 3c
       0.19451804 0.23067537 0.02690802 0.030993106
000040 44 bd 1a be 07 f2 92 bd da 48 52 be 8a c4 fc bd
       -0.15111262 -0.07175069 -0.20535603 -0.12342174
000050 84 d9 2c 3c 91 35 5f be 41 d1 c6 bd 7d 46 ca bd
       0.010549907 -0.21797778 -0.09707881 -0.09876726
000060 ad e8 c2 3b d0 d3 92 bd e6 b7 44 3e cb fe cd 3d
       0.0059481473 -0.07169306 0.19210777 0.100583635
000070 3d 52 95 3c 28 05 83 bd 53 78 57 3e ec fd 45 be
       0.01822769 -0.06397468 0.21041994 -0.19335145
000080 54 3a fa bd 57 28 1c 3e 93 4f 1a 3e 9a 57 28 3e
       -0.122181565 0.15249763 0.15069418 0.16439667
000090 3b 53 a2 bd c1 0a 6b be bd af c7 3d 7b c4 04 bd
       -0.07926031 -0.22953321 0.09750316 -0.03241394
0000a0 f9 fb 63 3d 25 30 08 3e 9c 41 77 3c 83 7d 56 3d
       0.05566022 0.13299616 0.015091326 0.05236579
0000b0 95 09 6a 3e 86 f6 99 bc 84 7b d4 3d 00 32 cd ba
       0.22855218 -0.01879431 0.10375121 -0.001565516
0000c0 d5 90 1f 3e 1b 51 d6 3d 09 22 54 3b fb f1 22 3e
       0.15582593 0.104646884 0.003236892 0.1591262
0000d0 60 28 51 be 91 bb 54 3d bb 65 21 bc 9a 9f 27 be
       -0.20425558 0.05193669 -0.009850915 -0.16369477
0000e0 77 82 61 be 68 1e 18 be bb 89 35 3e db a1 cc bd
       -0.22022425 -0.14855349 0.17728321 -0.09991809
0000f0 75 e1 25 be 1d d0 70 3e 27 60 c9 bd 47 cb 4b 3d
       -0.16199286 0.23516889 -0.09832793 0.049754407
000100 51 85 6f 3e 41 2b 2f 3e c9 e3 24 3e 62 a0 f6 3d
       0.233907 0.17106344 0.16102518 0.12042309
000110 95 de 40 bc 3b b1 e6 bc b9 15 5a 3e a7 8d c8 3d
       -0.011771818 -0.028160682 0.21297349 0.09792643
000120 78 34 db 3d 2b a0 f7 3d 4a bc 76 be 24 cc f2 bd
       0.10703367 0.120910965 -0.24095264 -0.11855343
000130 f9 29 09 be bd 8c b8 3d c7 e5 2d be 16 fd 4b 3e
       -0.13394918 0.09011219 -0.16982184 0.19920763
000140 10 88 96 3d 43 24 bb 3d 1a 50 7a bd d7 b4 48 be
       0.073501706 0.09137776 -0.061111547 -0.19600235
000150 40 81 3f be 06 74 5e 3d bd 1d 62 be d5 f0 67 be
       -0.18701649 0.054309867 -0.22081657 -0.22650464
000160 48 8f ab bc 1b f3 38 be 87 13 6f 3e 12 a3 b1 3d
       -0.020942345 -0.18061487 0.23347293 0.08673681
000170 7a 93 4d 3e b0 35 36 be 0a 03 23 3e cb aa 05 3e
       0.20075789 -0.17793918 0.15919128 0.13053434
000180 fe 84 e1 3d 52 90 b1 3d 36 1b 68 3e 4a 65 b7 bd
       0.11011694 0.08670105 0.2266663 -0.08954866
000190 62 94 ba 3a 54 3d 26 3d 96 bf f4 bd d2 bd 0d bd
       0.0014234895 0.04058583 -0.119506046 -0.034604855
0001a0 86 cb ba bd 5b 12 d6 3d 94 b9 46 3d fb 8c f5 bd
       -0.0912085 0.1045272 0.048516825 -0.119897805
0001b0 f2 45 65 be 8a 88 44 bd 72 4f b8 3d 06 63 e0 bd
       -0.22389963 -0.047981776 0.08999528 -0.10956387
0001c0 61 70 a5 3d a2 2a 44 bd 6a ab d5 bd 77 05 f4 bb
       0.08078075 -0.04789222 -0.10433085 -0.0074469405
0001d0 c3 3d ff 3b 2b fd f4 3d 6d 2f 10 3e 80 2f 72 bd
       0.007789345 0.119623505 0.14080591 -0.05912733
0001e0 78 30 0f 3e 7a a7 6e be 37 a2 2b be 98 82 bc bd
       0.13983333 -0.23306075 -0.16761099 -0.09204596
0001f0 07 4f 01 3e e0 79 0b bd 08 c8 89 3d ed 15 5c be
       0.12627803 -0.034051776 0.06727606 -0.21492739
000200 a9 e1 cf 3d 1f 3c 5c bd 23 5a 30 3e 0e 81 bd bd
       0.10150463 -0.053768273 0.17221884 -0.09253131
000210 64 30 37 3e 4e 2e 20 be 5b 81 44 3e 15 43 98 bd
       0.17889553 -0.15642664 0.1918997 -0.0743467
000220 e4 a1 de bd 3a d3 93 3d dd 96 4d 3e ee c8 ed bd
       -0.10870722 0.07218023 0.20077081 -0.1161059
000230 85 8d 8e 3d 61 e1 df bc d8 fc 26 bd 29 32 a2 3d
       0.069605865 -0.027329149 -0.040768474 0.079197235
000240 e1 ad c2 3d d1 c8 c1 3c 7d 0a 19 be 8c ed 0f be
       0.09505821 0.023655327 -0.14945407 -0.1405546
000250 a2 4a 26 be ba f9 36 3e 71 5a 9a 3c 80 2e 2e be
       -0.16239408 0.178687 0.018841954 -0.17009926
000260 ac 67 62 3c 9c b8 60 3e 5f 21 04 be 86 fd 4d be
       0.013818663 0.21945423 -0.12903355 -0.20116243
000270 e9 4f 17 3e e4 b9 10 3d 42 a6 b9 bc fe 68 06 be
       0.14776577 0.03533353 -0.022662286 -0.13125989
000280 e6 4f 07 be 82 92 b9 bd 8f 7e 3a bd 4d 30 a7 bd
       -0.13214073 -0.09061147 -0.045530852 -0.081635095
000290 ae ce 9f bd 0f fa a2 bd 18 f7 bf bd f5 22 e6 bd
       -0.07803093 -0.07957851 -0.09373301 -0.11237136
0002a0 c6 8c 31 be 7d 42 d9 3d 58 6a 6f bc 9f 15 28 bd
       -0.17338857 0.10608385 -0.014612757 -0.041036244
0002b0 ab f4 28 3e da 09 c1 bd 1f 8f b3 bc 99 31 81 be
       0.16499583 -0.09425707 -0.021918831 -0.25233153
0002c0 3f 4e 46 3e 1e b7 b3 3c 40 31 9d bb 92 8c 2b be
       0.19365786 0.021937903 -0.004797131 -0.16752842
0002d0 9b 8b 41 3d 1b e5 38 3e 2f f8 31 3e a2 5b 12 be
       0.04725228 0.18056147 0.17379831 -0.14292768
0002e0 88 ad 92 3c 17 f9 3e be b5 a8 d6 3c 1c c0 b8 3d
       0.017905012 -0.18649708 0.026203493 0.09021017
0002f0 17 23 44 3e 0e 24 07 be a9 fb 9f 3d 80 c7 d7 bb
       0.1915401 -0.13197348 0.07811672 -0.0065850616
000300 ab 25 ce bd 7a 68 08 bd dd a7 28 3e 57 da 0f 3e
       -0.10065778 -0.03330276 0.16470285 0.14048134
000310 f0 84 24 be 0a 31 da 3d b8 cd ba 3d eb 3c 41 3a
       -0.16066337 0.10653885 0.09121269 0.0007371443
000320 57 0f ff 3c 9d fb 03 3e 2c aa 64 be b7 55 6f 3d
       0.031135244 0.12888952 -0.2233054 0.058431353
000330 4e 13 6b 3e 50 1b 00 3e 5f e3 5a 3e 09 38 3a be
       0.22956583 0.12510419 0.21375798 -0.18185438
000340 f3 e3 34 3e a4 bb 0c 3d 8e e0 3f be df 97 ca 3d
       0.1766508 0.034358636 -0.18738005 0.09892248
000350 c1 4b 86 3c 7e 61 a3 3d ee ae b9 3d be d4 6e 3e
       0.016393544 0.079775795 0.09066568 0.23323342
000360 d2 40 02 be 28 12 27 3d 2b 9c 57 be a8 6f 30 3e
       -0.1272004 0.0407888 -0.21055667 0.17230093
000370 1b 53 24 be 4d 67 81 bd 98 fa 4c bd b2 a8 36 3e
       -0.16047327 -0.06318531 -0.050043672 0.1783779
000380 6a dc 68 bd 71 1c dc bd 67 8d fe bd 9f be 0c be
       -0.05685083 -0.10747612 -0.12429314 -0.13744591
000390 9d ef 0e 3e 81 d4 07 be 75 0a 85 bd 1b 14 2d be
       0.13958593 -0.13264658 -0.06496135 -0.16902201
0003a0 98 4c f5 bc 2f 5c 25 3d 81 6a 42 3e f6 af d4 3c
       -0.02994375 0.040371116 0.1898594 0.025962811
0003b0 37 3d 18 3d 7e 98 db 3d 83 b0 0c be 03 ef 54 3e
       0.037167754 0.10722445 -0.13739209 0.207943
0003c0 14 00 31 be 80 64 e3 bd e9 70 d3 bd 44 c8 b1 3d
       -0.17285186 -0.11103153 -0.1032427 0.08680776
0003d0 b7 aa 48 be e8 11 f6 bd c1 e3 22 be 63 4c 3f 3d
       -0.19596373 -0.12015134 -0.15907194 0.046703707
0003e0 d2 3a 9c bc 6b 25 45 be 6c 7d 59 3d 0d 44 3f be
       -0.019071016 -0.19252555 0.053098127 -0.18678303
0003f0 ef a9 a3 bd 04 51 0d be fc cf 28 be ad 1c 4d be
       -0.07991397 -0.13800436 -0.1648559 -0.2003047

actor.fc2.bias f4 [128]
000000 be 5e 10 3d d0 66 86 bd 66 ba ea 3c ab 6f 71 bd
       0.035246603 -0.06562579 0.028653335 -0.058944385
000010 81 e1 4a bd 05 c6 5c 3d a2 11 89 3b 5b ee 9d bd
       -0.049531464 0.053899784 0.00418301 -0.07711478
000020 fe 98 81 bd 5e 52 ae 3b ea 67 18 bd 53 35 4d 3d
       -0.06328009 0.0053198775 -0.037208475 0.050099682
000030 43 66 88 bd cf 44 53 bd f5 14 91 3d df 82 33 bd
       -0.0666013 -0.051579293 0.07084075 -0.04382598
000040 23 8b ab bd ee 0d b2 3c e5 01 1c bc de cd a9 3c
       -0.083761476 0.021735158 -0.009521936 0.020728048
000050 45 b6 b3 3d 91 dd 88 3d 34 b7 8e 3c b2 15 63 3d
       0.087749995 0.066828854 0.017421342 0.055440612
000060 88 77 0c 3d 7d 61 ae bd 08 59 da 3b 4f 6d ab 3d
       0.03429368 -0.08514688 0.0066634454 0.08370458
000070 20 e0 a6 3d 8b ae 0a 3d 3e e0 98 bc 9e af 53 bd
       0.08148217 0.033857863 -0.018661615 -0.051681153
000080 ed b4 9e bd 76 84 85 bd 6c 89 a0 bd 54 70 c7 bc
       -0.077493526 -0.065194055 -0.07838711 -0.024345554
000090 71 d7 9a bd 2f 38 4a 3d ad 28 bd 3c 2f ad f2 3c
       -0.075606234 0.049369987 0.023090685 0.029623596
0000a0 f9 fc 88 bc 29 5c 97 3d c0 86 98 bd c7 44 3c 3d
       -0.01672219 0.07390625 -0.074475765 0.04596403
0000b0 65 99 75 3d f3 99 33 bc 3e 1d 04 bd c9 82 f2 3c
       0.05996074 -0.010961997 -0.03225445 0.029603379
0000c0 2f 92 c1 3c b2 70 3e bd e6 d9 63 3d 02 e6 be bc
       0.023629276 -0.046494193 0.055627726 -0.023303036
0000d0 96 78 a7 bd 0d a6 43 bd 9f a5 92 bd 51 8e 0d 3d
       -0.08177297 -0.04776578 -0.07160496 0.03455955
0000e0 8b 1c 0c 3c 11 42 02 3d 36 b8 a5 bc 37 10 61 3d
       0.008551727 0.031801287 -0.02022944 0.054947104
0000f0 ee 2f 7e 3c 77 0b 6b bd 9c 02 c3 3c 32 40 e0 bc
       0.015514357 -0.05738398 0.023804955 -0.02737436
000100 6d d1 9a bd ce 59 d4 3c 75 00 1a 3d 0f 67 6a bd
       -0.07559476 0.025921728 0.037598092 -0.05722719
000110 08 9c 48 3d 6e 2f 98 bd 54 e1 8e 3d 48 64 e0 bb
       0.048976928 -0.074309215 0.06976572 -0.006847892
000120 58 eb 9f bc 21 ef 82 bd 02 e0 7e bc b6 1c 40 bd
       -0.0195214 -0.063932665 -0.015556337 -0.04690238
000130 a9 c2 93 3c 6e c7 7f bd af 22 a9 bd fa 2f 2c 3d
       0.018037157 -0.06244605 -0.082585685 0.04203794
000140 63 8d bb 3b a3 1b 94 3c c5 9e 64 3d 5f bd 14 bd
       0.0057236417 0.018079584 0.055815477 -0.03631341
000150 64 b8 d6 bc 30 72 1a 3d 33 36 a2 bc 3a 9f a2 3c
       -0.026210971 0.037706554 -0.019801235 0.019851316
000160 c8 8f 09 bd a6 ec 92 bd 74 21 72 3d c4 0d 4c 3d
       -0.033584386 -0.07174043 0.059113935 0.049817815
000170 8d 74 a6 3c 43 ef 86 3b 9b 03 0e bd 27 2a 3f 3d
       0.020319248 0.0041178777 -0.034671407 0.04667106
000180 c2 fb 8f 3d 42 e2 99 3d 9e 04 ec bb 25 96 69 bd
       0.07030441 0.075138584 -0.007202699 -0.057027955
000190 74 01 1f 3d 85 bd 6b bd c4 5e 5c 3d 10 d9 3b 3c
       0.038819745 -0.057553787 0.053801313 0.011465326
0001a0 38 b7 91 3c 67 63 6c bd 43 cb ae 3d 44 a3 6b 3d
       0.01778756 -0.057711985 0.08534863 0.05752875
0001b0 49 16 32 bd d9 7a 8e bd c3 9c 8f bd 5a 85 09 bd
       -0.043478284 -0.06957025 -0.07012322 -0.03357444
0001c0 80 02 08 bd 10 46 48 bd f1 fb 89 3c cb 89 41 bd
       -0.03320551 -0.04889494 0.016843768 -0.04725055
0001d0 df cc 56 3d de ef b5 bd ed 8a 7c 3d 3b a7 7b bd
       0.052441474 -0.08883642 0.061655927 -0.06143878
0001e0 2e 04 38 bd 88 5b 9e bd c0 b2 84 3d 37 f7 0d 3c
       -0.04492586 -0.07732302 0.06479406 0.008664898
0001f0 81 ec 9d 3c 87 43 6f 39 26 aa 86 3d 6c 3a b9 bb
       0.019277813 0.00022817972 0.06575422 -0.0056527164

actor.fc2.weight f4 [128, 128]
000000 39 8c 45 3c 59 23 03 bd 9b f6 86 bd 84 29 68 bb
       0.0120573575 -0.032016132 -0.06590005 -0.0035425136
000010 dd b1 43 bd c9 46 38 3d 48 71 82 3d a0 17 a5 bd
       -0.047777046 0.04498938 0.06369263 -0.08061147
000020 4d ab c1 bc 18 f6 40 3d a2 d4 87 bd 59 31 72 bd
       -0.023641253 0.047109693 -0.06632353 -0.059129093
000030 18 42 d9 bc 44 53 42 3d da c3 82 3d b7 2e 09 3d
       -0.026520774 0.04744269 0.06385012 0.033491816
000040 16 97 a9 3d 57 b4 17 3d 71 da 47 bd a3 08 a1 bc
       0.082807705 0.03703722 -0.048792306 -0.019657439
000050 22 42 36 bd 69 d0 c4 3c 2f d8 8b bd 2f c3 9f 3d
       -0.044496663 0.024025159 -0.06828343 0.078009
000060 e3 e2 72 bd 62 f5 82 bd f1 41 a7 bd d7 28 82 bd
       -0.059298407 -0.06394459 -0.08166874 -0.06355446
000070 6e 78 0e bd 17 2d 67 bd c8 56 59 3d 1f 42 08 bd
       -0.03478282 -0.056439485 0.053061277 -0.033266183
000080 0e 31 32 3d c1 0a 86 bb 62 8b 8b bd 20 bd 4d 3d
       0.043503813 -0.0040906374 -0.068136945 0.05022919
000090 0e 56 27 bd 71 6b e4 bc 53 17 80 bd e8 cd aa bd
       -0.040853553 -0.027883263 -0.06254449 -0.08340055
0000a0 82 90 a0 bd 48 86 8d bc b5 3a 2e bc 6e 16 29 3c
       -0.07840063 -0.017275944 -0.010634114 0.010320289
0000b0 d2 e3 ba bd e1 61 03 3d 6b 63 6b bd 43 ca 82 bb
       -0.091254845 0.032075766 -0.05746786 -0.0039913966
0000c0 74 f4 18 3c 0a f8 18 bd c0 46 26 bd bf cc b2 bb
       0.009335626 -0.037345923 -0.040594816 -0.0054565365
0000d0 24 3b ae bd 32 bc 07 3c c6 45 b5 bd 88 01 f1 bc
       -0.08507374 0.008284615 -0.08851199 -0.029419675
0000e0 93 11 86 bd de 51 91 3d 61 8e 5f 3d b9 dd 9a bd
       -0.06546321 0.07095693 0.054579142 -0.075618215
0000f0 fe c7 a4 ba 48 38 88 bd ba 0f f7 39 39 a8 c1 bc
       -0.0012571809 -0.0665136 0.00047123228 -0.023639785
000100 d4 dc 71 3d 24 d0 4f bd 82 9b e3 bc 91 71 34 bd
       0.05904849 -0.050735608 -0.027784113 -0.044053618
000110 5f c6 28 3c bb 85 00 3d d4 47 80 3d 2b f0 1b 3d
       0.010301202 0.031377535 0.062637 0.03807084
000120 7d c3 6b 3d 76 9c 95 3c bf 3a 6f 3d 3d c7 a7 3d
       0.05755948 0.018263083 0.058405634 0.081922986
000130 86 e4 30 3d 16 47 81 bd 9e c1 26 bc 5a 33 1a 3d
       0.043186687 -0.06312387 -0.010177998 0.03764663
000140 cf a3 9e 3c a3 5b 52 bd 87 cf bd bc b7 6d 23 3d
       0.01936522 -0.051356923 -0.023170246 0.039899554
000150 fd 07 2b 3d a6 fd ca b9 3b f2 a4 bc 01 7c 78 bd
       0.041755665 -0.00038717425 -0.020135036 -0.060665134
000160 c8 a9 72 3d 0e d6 17 3c e1 97 9c bd 6a 18 9b bd
       0.059243947 0.009267343 -0.07646156 -0.07573016
000170 86 fc 8d 3b 5b d4 dc bc 6c 74 92 bd c4 c5 9d 3d
       0.0043330817 -0.026956728 -0.07151112 0.077037364
000180 21 02 6c 3d a4 3a 5d bd ff 67 93 bc 11 c1 48 bb
       0.057619218 -0.054011002 -0.017993925 -0.0030632655
000190 0f 56 4a 3d e9 85 8d 3c d8 39 c2 bc f7 f9 b6 bb
       0.049398478 0.017275767 -0.023709223 -0.0055839974
0001a0 a6 dd 11 bd da e7 b0 bd 58 c6 54 bd e8 3c 0e 3d
       -0.03561177 -0.08637972 -0.051946968 0.034726053
0001b0 56 c1 ca bc 9d 08 4f bc b6 81 62 3d bd 5e 4a bd
       -0.024750393 -0.012636331 0.055299483 -0.049406756
0001c0 13 7d 4c 3d 1f 96 a5 3d ac 9b 7d bd 70 3a 01 bb
       0.049923968 0.08085274 -0.06191604 -0.001971867
0001d0 3e 1d 7c 3d 3e 18 93 bb b6 9d d6 3c 7e 46 51 bc
       0.061551325 -0.004488974 0.02619825 -0.012773154
0001e0 74 e5 b2 3c 7b 63 3b 3d 18 dc 49 bd 79 5d 91 bd
       0.021837927 0.04574917 -0.049282163 -0.070979066
0001f0 08 6b 1a bd 2c 99 73 3d 35 38 d8 bb a3 72 b1 bd
       -0.03769973 0.059472248 -0.0065984973 -0.08664443
000200 6d a1 c4 3b bb 9f 2b 3d d6 fc 98 bd 0b cd 0b 3d
       0.0060006888 0.041900378 -0.074701 0.03413109
000210 c2 2e 9e bc d3 b6 9a bd 85 eb 02 3d 75 d3 15 3d
       -0.019309405 -0.07554402 0.03196289 0.036578614
000220 df 35 1c 3d 36 ca a7 3c 41 25 a8 3d c7 02 0b 3d
       0.038137313 0.020482164 0.082102306 0.033938196
000230 05 33 77 3d 63 97 00 bd 87 32 18 3d 2a af 31 bd
       0.06035139 -0.031394374 0.03715756 -0.04337994
000240 7b d0 6d 3d c6 b7 c3 bb 9c 96 5c 3c 80 1f 6a bd
       0.05806015 -0.0059728352 0.013463642 -0.057158947
000250 ad e8 9b bd 4b d3 68 bc fd 3e b8 3c ae b2 2f 3d
       -0.07612739 -0.014210532 0.022490973 0.04289501
000260 4a 15 d7 3c a3 f5 d4 bb 92 da 57 bc a5 41 a9 bd
       0.026255269 -0.0064990087 -0.01317467 -0.08264474
000270 12 f1 fc 3c 94 13 6d bd 91 81 9f 3c 08 ba a6 bd
       0.03087667 -0.05788 0.019470962 -0.081409514
000280 14 65 a1 bc 5a 7e 7f 3d 20 dd 22 3c 2a c6 e1 3c
       -0.019701518 0.062376358 0.009940416 0.027560312
000290 91 d9 90 3c d7 c4 92 bd 56 79 0c bc 94 2b b1 bd
       0.017681869 -0.071664505 -0.008573851 -0.0865089
0002a0 76 23 9e bd 76 84 6e 3d 78 28 a2 bd d8 22 49 3d
       -0.077216074 0.058231793 -0.07917875 0.049105495
0002b0 03 8e b8 bb ae e9 2e 3d c1 e8 c1 3c 78 7f 11 3d
       -0.0056321635 0.042703323 0.023670556 0.035521954
0002c0 59 23 e0 bc d9 32 b4 bd f0 7f 7d bd 15 4b d4 bc
       -0.027360605 -0.08798761 -0.06188959 -0.025914708
0002d0 3d 9b 0e 3d 9d ae 55 bd 22 fa 6c bd 79 c7 94 3d
       0.034816016 -0.052168477 -0.057855733 0.07264609
0002e0 53 93 5c bd 4e e3 56 bd 4c 89 7c bd 57 93 89 bb
       -0.053851437 -0.05246287 -0.061654374 -0.0041984725
0002f0 e8 9f 84 3b 4e 98 dd 3c 5e 4b f6 b7 da 04 b4 bd
       0.0040473826 0.027050164 -2.936058e-05 -0.08789988
000300 68 04 9e 3c e4 d8 97 3d 44 b6 23 3d 6f be 24 3c
       0.01928921 0.074144155 0.039968744 0.0100551685
000310 b4 ee 92 bd 31 3d 5d bd 6f 04 b1 3d ca c2 dc 3c
       -0.07174435 -0.054013435 0.08643424 0.026948351
000320 15 5c bd 3d 59 a1 14 3c 52 2a f2 3c 50 70 8a 3d
       0.09246079 0.009071671 0.029561196 0.06759703
000330 05 32 af 3d 92 86 76 3d 9d a3 83 3d 51 7d ac 3c
       0.08554462 0.06018693 0.06427691 0.02105585
000340 53 f0 17 3c bc bf 69 bd ae e7 0a bd fa 94 aa 3d
       0.009273606 -0.057067618 -0.033912353 0.08329196
000350 38 7f 8b bd 10 2b 8e 3c d3 6f 61 bd d6 e4 5d 3d
       -0.068113744 0.017354518 -0.055038285 0.054173313
000360 48 5d a5 3c 93 dc 8a bd 03 78 9c 3c a2 27 ed bb
       0.020186082 -0.067803524 0.019100195 -0.0072373906
000370 c5 27 fe bc fe 98 43 3c 4e 09 a1 3d f6 1c 61 3d
       -0.031024823 0.011938332 0.07863103 0.05495926
000380 bf 11 f5 3c 93 b3 9d bc d4 e0 2e 3d bf e7 07 3d
       0.029915689 -0.019250667 0.04269488 0.033179995
000390 47 70 b8 3d 64 94 87 bd a1 7a bb 3b 63 e8 81 3d
       0.0900579 -0.066201 0.0057214056 0.063431524
0003a0 67 c4 09 3d 87 19 7b 3d bc 42 25 3d 9f 24 b1 bd
       0.03363457 0.06130364 0.040346846 -0.08649563
0003b0 c9 30 8a 3d f0 71 0b bd 70 cb a3 bd bc fb f4 3b
       0.06747586 -0.034044206 -0.07997787 0.007476298
0003c0 bb 87 74 bd 57 99 28 bd 74 93 75 bc 45 ce 80 3d
       -0.059699755 -0.04116186 -0.014988769 0.06289343
0003d0 31 27 56 bd 5d 62 0e bd bf e2 45 bd 8a 76 4a 3d
       -0.05228347 -0.034761775 -0.048311945 0.049429454
0003e0 38 f7 93 3c bb 4e dd 3c 48 88 9f 3d 29 dc a9 3d
       0.018062219 0.02701508 0.077896655 0.08293945
0003f0 ff b8 55 bd c1 01 09 bd 08 55 4d bc fd 6a 3c 3d
       -0.05217838 -0.03344894 -0.01253248 0.04600047

actor.fc3.bias f4 [3]
000000 3d 46 58 3d 54 e1 6c 3d 2c 27 31 3d
       0.05280136 0.057832077 0.043250248

actor.fc3.weight f4 [3, 128]
000000 ff 52 0f bd 88 af 8b bd 36 2d 8e bd 9b fc 7a bd
       -0.03499126 -0.06820589 -0.06942217 -0.06127606
000010 05 4f 0e 3d bb ae 63 bd 2c 11 80 bd fd 97 a0 bd
       0.034743328 -0.055586558 -0.06253275 -0.078414895
000020 25 fd 96 bc 12 c7 4f bd 21 9b 1a bd 9a f3 1b bb
       -0.018431256 -0.050726958 -0.0377456 -0.002379632
000030 a4 a5 ff bb 3c 00 d4 bc 7a 92 02 bd 37 60 25 3d
       -0.0078017283 -0.025879018 -0.031877972 0.04037496
000040 55 3e aa bd b3 b5 f1 3a 4b c9 99 bc 10 8c 0d 3d
       -0.0831267 0.0018440991 -0.018772742 0.034557402
000050 4e f5 3f bd 1a a0 1c 3d 4a a4 20 3c 55 6d 51 3d
       -0.0468648 0.038238622 0.009804795 0.051129658
000060 61 04 77 3d 9a 0c cb bc 22 27 80 3c b0 1d b7 bc
       0.06030691 -0.024786282 0.01564366 -0.022353023
000070 a3 3e ab bd 4b f2 a7 3b 09 90 20 3d f2 27 2c 3d
       -0.083615564 0.005125319 0.039199863 0.042030282
000080 e5 a7 a0 bc d9 2b 71 bd eb 9e e0 bc dc 8b 98 bc
       -0.019611308 -0.058879707 -0.027419528 -0.018621378
000090 a9 d3 5f 3d bc f6 9b 3d f3 55 08 bd b3 02 26 3d
       0.054645214 0.0761542 -0.033285093 0.040529918
0000a0 c0 96 b5 3d 18 74 f9 3b 80 c3 e0 3c db 19 8d 3b
       0.08866644 0.0076127164 0.027436972 0.0043060607
0000b0 30 64 c3 bb 78 6d 8c 3d 06 4a b0 bd 6a 1f b1 bd
       -0.005962871 0.06856817 -0.08607869 -0.0864857
0000c0 7c 4d 0c bd 61 a1 84 bd b8 74 63 bc a1 04 63 bc
       -0.034253582 -0.06476093 -0.013882808 -0.013856084
0000d0 3e d8 0e bd b7 51 7d 3d ca e9 98 3d 0f b1 2f 3b
       -0.034874193 0.061845507 0.07466467 0.0026808416
0000e0 18 83 ac 3b c0 6b 9a 3c 91 00 87 bd 20 e4 25 3d
       0.005264651 0.018850207 -0.06591905 0.04050076
0000f0 46 49 8a bb 70 ed b8 3c ea 8f 96 bc c6 3d d0 3b
       -0.0042201607 0.022574157 -0.01837917 0.00635502
000100 7d dc cb 3c e5 62 e7 bc 12 2e 55 3d 2b 1f 9b bb
       0.02488541 -0.028245399 0.05204589 -0.00473394
000110 f3 3c 46 bd 18 de 19 bd f0 20 ce bc 98 73 1d 3b
       -0.04839797 -0.03756532 -0.02516219 0.0024025198
000120 a4 72 94 bd 54 ee b2 3c bf 74 92 3d 9e 78 89 bd
       -0.072484285 0.02184216 0.07151174 -0.06712459
000130 f6 e0 8e 3d 81 15 53 3d 31 1e 28 bd 94 9b 9c 3b
       0.06976502 0.05153418 -0.041044418 0.0047792885
000140 d3 55 a8 bb 47 37 92 3d 2c cf 86 3d 4e 33 6f 3d
       -0.005137184 0.071394496 0.06582484 0.058398537
000150 54 59 8e 3d f7 5e 90 bd 73 7b 86 bd 58 5d 85 bc
       0.06950632 -0.07049363 -0.06566515 -0.016279861
000160 9c 73 97 bd 09 85 3e bd 17 58 73 3d bd db 55 3d
       -0.073950976 -0.04651359 0.05941018 0.052211512
000170 8f 24 9e bd 28 4f 31 bd 9d e1 63 3d 86 25 aa bd
       -0.07721817 -0.04328838 0.055635083 -0.08307938
000180 d9 9d 8c 3d 68 4d 98 bb b1 87 51 bd 0e 79 99 bd
       0.068660446 -0.0046478994 -0.051154796 -0.074937925
000190 65 54 ab 3c 04 9f a1 3c 64 05 95 bd ef 49 ec bc
       0.020914266 0.019729145 -0.07276419 -0.028843848
0001a0 63 1e 75 3b 7a e5 b2 bc 14 96 ad 3d 8c 3d 08 bd
       0.0037402145 -0.021837939 0.08475891 -0.03326182
0001b0 a3 ed de 3c d2 09 91 3d 90 ac 11 3d be a5 2c 3d
       0.027212923 0.07081951 0.03556496 0.04215025
0001c0 d0 4a 86 3d 9a 8b 5c bd 33 10 62 3d 5d 5b 8b bc
       0.06557238 -0.053844072 0.05519123 -0.017011339
0001d0 0b ae 21 3d 88 08 36 bc 54 c2 db 3c 23 fe 96 3d
       0.03947262 -0.011110432 0.026826061 0.073726915
0001e0 a7 b7 8c bc 9e 1e 9a bd ed 0d 8a 3d 19 37 a6 bd
       -0.017177416 -0.07525371 0.067409374 -0.08115978
0001f0 b3 5f 50 bb cc 19 18 3c a3 5b ac bc 2b 23 86 3d
       -0.0031795322 0.009283494 -0.02103979 0.065496765
000200 dc 15 9d bd 3a 26 0a 3c 5b 42 f8 bc 55 85 3e bd
       -0.07670185 0.0084319655 -0.030305078 -0.046513874
000210 18 28 9f bd 78 a7 54 bd 0b 2a 4c 3c 55 47 89 3b
       -0.07771319 -0.051917523 0.012461196 0.0041894116
000220 e7 48 8f 3d f5 5c c8 3c ff 82 a1 bd 5d 47 7c bc
       0.06996327 0.024458388 -0.07886314 -0.015397874
000230 bd d3 67 bd aa c7 90 bc 1c 88 15 bd d8 86 95 3c
       -0.056598414 -0.017673332 -0.036506757 0.018252775
000240 54 7a f1 3c c3 85 94 3d 3e d2 75 3d e8 9e 16 3c
       0.029477276 0.072520755 0.060014956 0.00919316
000250 51 39 3e bd 26 5c 6a 3d 14 fe eb 3c 4f b9 92 3d
       -0.04644138 0.057216786 0.028807677 0.07164251
000260 92 df b6 3c 5a 20 96 3d 3e 3c 2b 3d d9 4a 5e bd
       0.022323404 0.07330389 0.0418055 -0.0542706
000270 89 23 1b 3d 31 89 8d 3d cf 57 0f 3d 30 3c 9b bb
       0.037875686 0.06910933 0.03499585 -0.0047373995
000280 f0 e6 d6 bc f9 1b 71 bd 6d 9f a0 bc 86 4c 92 bc
       -0.026233166 -0.058864567 -0.01960727 -0.017858755
000290 e6 ae ae bb c2 a0 2b bd 38 b0 c2 bc 47 98 59 3d
       -0.005330908 -0.041901357 -0.023765668 0.05312374
0002a0 b1 0f 15 bc 49 b1 7a bd e1 c3 2e bd 88 ac dc 3b
       -0.009097979 -0.06120423 -0.042667273 0.0067344345
0002b0 cf 52 a9 bd dd bf 87 3d 56 ea 9b 3d 3d b2 29 3d
       -0.082677476 0.06628392 0.076130554 0.041429747
0002c0 f9 eb a3 bd 71 b5 8f 3d 08 f6 6d 3c 68 09 d7 bc
       -0.080039926 0.07017029 0.01452399 -0.026249602
0002d0 38 3a ff bc 0e 05 18 bd a9 6a 45 3d 5d f6 47 3d
       -0.03115569 -0.037114196 0.048197422 0.048818935
0002e0 cf 39 5c 3d d1 12 9f bd 62 c8 60 3d 39 22 17 3d
       0.053766068 -0.07767261 0.0548786 0.03689787
0002f0 1d aa 62 3d 0b 8d 74 bd 97 5c 8a bd 59 fd ae bc
       0.055338014 -0.05970482 -0.06755941 -0.02136104
000300 0f 6b 68 3d 5d 43 9e bd d1 79 ea 3c c9 12 02 3d
       0.056742724 -0.07727692 0.02862254 0.031756196
000310 36 2d 91 bd 99 69 94 3d 61 82 5e bc 2b 27 4a 3d
       -0.070887014 0.07246704 -0.013580889 0.04935376
000320 57 71 33 3d 14 ec ac 3d 8e 08 34 3d 67 d1 46 bd
       0.04380926 0.08443466 0.04395347 -0.048539545
000330 9b 24 ac bd 21 7e ae 3d 57 f9 87 bc bf fd 23 3d
       -0.084054194 0.08520151 -0.016598387 0.040036913
000340 38 83 cd bc c5 44 2f 3d 22 c8 1b 3c e1 61 d8 3c
       -0.025086984 0.042790193 0.009508165 0.02641386
000350 0b 8c e3 bb a3 8a 84 3d ed 00 8a bd 9e 53 d7 3c
       -0.0069441847 0.06471755 -0.06738458 0.026284989
000360 39 75 e8 bc 93 d5 83 3d c9 36 83 3d 35 43 8a 3d
       -0.028376209 0.064372204 0.06406934 0.067511
000370 91 c4 d3 bc 11 85 a0 bd da 83 38 3c dd 17 9a bc
       -0.025850566 -0.078378804 0.011261905 -0.018810207
000380 89 c0 a3 3d 67 1e b0 bd b9 85 02 bd d3 eb 1b bc
       0.079957075 -0.08599549 -0.03186581 -0.009516674
000390 03 cd 0f 3c 8b e5 ec 3c 8c b1 76 3c f8 c2 39 3d
       0.008776906 0.028918048 0.015056979 0.045351952
0003a0 6b 01 0a 3b 16 8e 20 bd 0a 6b c2 bc d6 ba fb bc
       0.0021057974 -0.039198004 -0.02373268 -0.030728739
0003b0 c7 8b 8c 3d f4 80 38 bd 2e 7a 6d bd 7d 79 8a 3c
       0.06862598 -0.045044854 -0.057977848 0.016903633
0003c0 01 9c bf 3b 63 77 01 3c 39 a6 a3 bc 47 6a 0b 3d
       0.0058474545 0.007901999 -0.019976722 0.0340369
0003d0 a0 c5 0e bd 13 70 4a 3d 2d d8 74 bc 5a f2 8e 3d
       -0.03485644 0.04942329 -0.014944118 0.06979819
0003e0 63 ab 8d 3c 0c 18 2c bd fb b9 be 3c ff b7 5b bd
       0.017293638 -0.04201512 0.023282042 -0.05364227
0003f0 63 bb 03 3c a7 0e 92 3d d4 4c 8f 3d f6 9e 64 bd
       0.008040282 0.07131701 0.06997076 -0.05581566

critic.fc1.bias f4 [128]
000000 b3 0f 06 bd 5a 98 60 be a7 43 37 3e 3d aa 48 be
       -0.032729816 -0.21933118 0.17896901 -0.19596191
000010 fd 4b 1d be cd b4 0b bd 60 56 dd bb fd 9e 21 be
       -0.15361018 -0.034107972 -0.0067546815 -0.15783305
000020 b4 6f 1c be 1e 4b 8c 3e 50 06 09 be 7f 5e a1 bd
       -0.15276986 0.2740106 -0.13381314 -0.07879352
000030 20 e8 1f bc d2 4c 37 be e4 b3 52 3e 20 29 33 bd
       -0.009759933 -0.17900398 0.20576435 -0.04374039
000040 4e 4d 28 bd 15 2d 0a be f7 57 50 3e 64 22 79 3d
       -0.04108935 -0.1349376 0.20346056 0.060823813
000050 ff 44 1e be a6 f4 78 3c 07 9c 42 be 5a 82 3d be
       -0.15456007 0.0151950475 -0.19004832 -0.18506756
000060 ef 32 6c 3d d0 e6 8a bd 64 cb f3 3d ad 8d 86 3d
       0.05766576 -0.06782305 0.11904028 0.06569991
000070 62 ad 3d 3d 68 2f 71 3d ab 51 9e bd 72 61 6b bd
       0.04630793 0.0588831 -0.07730421 -0.057465978
000080 d1 66 ac bd f7 3a b7 3d d5 eb 4b 3e 71 49 16 be
       -0.08418048 0.089467935 0.19914182 -0.14676453
000090 1c 59 ae bd e6 ce a1 bd 2b 02 09 3c d7 95 99 3d
       -0.0851309 -0.07900791 0.008362333 0.07499283
0000a0 e0 4f ac 3c 53 99 d7 3d 29 4b f8 bd 6a d8 76 3b
       0.021034181 0.10527291 -0.12123711 0.0037665614
0000b0 9f 64 85 3e ce da 40 3e 26 a4 62 3e 6e b5 69 3e
       0.2605333 0.18833467 0.2213293 0.22823116
0000c0 1a 72 80 bd 7d 4c 32 3d 9d 11 e7 bd c5 33 c0 bd
       -0.06271763 0.043529976 -0.11282656 -0.09384874
0000d0 f1 14 25 be 5c 31 44 bd 0f c3 8a 3e af ac 80 bd
       -0.1612127 -0.047898635 0.27101943 -0.06282937
0000e0 87 44 f5 3d 66 38 76 3e 1f cc ce bd 14 de 1e 3e
       0.11975961 0.24044952 -0.10097527 0.15514404
0000f0 3c 95 a3 3d 99 fd 4d be 26 45 4b be f9 9c fb 3d
       0.079874486 -0.20116271 -0.19850597 0.122857995
000100 39 14 8d 3c 1a 7d c6 bb fa 85 62 3e e4 e2 03 bd
       0.017221557 -0.0060573937 0.2212142 -0.0321988
000110 2d ad 0f be 7b fa c9 bd 6e f5 59 bd ac 6e 55 3b
       -0.14030905 -0.098622285 -0.053212576 0.0032567186
000120 1e 4f 85 be 53 72 32 3e 52 eb 14 3d 7a 6b c9 3d
       -0.26036924 0.17426424 0.03635723 0.09834953
000130 22 6f d7 bd 50 29 d1 bd f2 09 62 be 62 79 40 3e
       -0.10519244 -0.10212958 -0.22074106 0.18796304
000140 34 e2 78 3d d5 72 1d bc 26 fd 59 3d ad a5 8c 3d
       0.0607626 -0.009609898 0.053219937 0.06867538
000150 c9 ed 37 be 32 fd 67 3e e9 35 87 be d7 d3 23 bd
       -0.17961802 0.2265518 -0.26408318 -0.039996948
000160 f8 41 76 3e a1 0d 49 3e cc a0 02 be 37 a3 6a 3d
       0.24048603 0.19634105 -0.12756652 0.05728456
000170 91 04 aa 3d de 7c 14 3e a5 71 11 3e b9 8d 30 bd
       0.08301652 0.14500758 0.14203508 -0.043103907
000180 0a 71 9a 3e 73 3e d2 3d 48 1e 42 3e a3 35 55 3d
       0.30164367 0.102658175 0.18956864 0.052053105
000190 ae 92 19 3d f7 dd 0b be ad f3 88 bd 64 30 5a bc
       0.0374934 -0.13658892 -0.066871025 -0.013317201
0001a0 31 4b 9a 3b 77 30 08 3e 7d da 7f 3e 98 99 5b bd
       0.0047086705 0.13299738 0.2498569 -0.053613275
0001b0 ab 85 0f be 42 a2 46 be 1d db 86 bd 20 a1 98 3e
       -0.14015834 -0.19397834 -0.06584761 0.2981043
0001c0 b1 0c 6f ba 79 74 0c 3d 55 bf c4 bd 64 56 19 be
       -0.00091190176 0.034290764 -0.09606806 -0.14974362
0001d0 8f 75 9b bc 81 66 6e 3e 0f 53 3a 3e a0 be 6c 3e
       -0.018976955 0.2328129 0.18195747 0.23119593
0001e0 6f 23 d5 3d 75 0d 4e 3e cb 79 d1 bd 10 84 3e be
       0.10407149 0.20122321 -0.10228308 -0.18605065
0001f0 df 4f 61 bd 03 b9 45 be 0e 07 27 be fa 37 e8 3d
       -0.05500781 -0.19308858 -0.16311285 0.11338802

critic.fc1.weight f4 [128, 18]
000000 e1 49 aa 3e 58 1b 65 3e 6e 1a a2 3c 92 90 36 3c
       0.3325949 0.22373712 0.019787993 0.011142867
000010 e3 60 98 bd d8 3b 3e 3e 65 66 1d 3e 74 f2 06 be
       -0.07440355 0.18577516 0.15371092 -0.13178426
000020 7a e4 27 be 3c a9 da 3d 3f a1 76 be 01 47 f0 bd
       -0.1639575 0.1067681 -0.24084948 -0.11732293
000030 5a 5d 0b bd e0 68 42 3e a9 44 86 be e4 1f b5 3c
       -0.034024574 0.18985319 -0.2622426 0.022109933
000040 18 01 de 3c 19 b4 85 3e d5 89 78 bc 34 fe ae bd
       0.02710013 0.26113966 -0.0151695805 -0.08544579
000050 25 8b b4 bd 49 9b 22 be f9 b1 a6 bc 8c d0 e8 bd
       -0.08815602 -0.15879549 -0.020348536 -0.11367902
000060 59 17 cb bd 13 47 be 3d 22 4f b1 bc ce 51 c2 bc
       -0.099165626 0.092909 -0.021644179 -0.023720648
000070 11 bd 6a 3d 01 db 24 3e db a9 77 3c 50 6a c7 3d
       0.057309214 0.16099168 0.01511618 0.097370744
000080 f8 d6 98 bc 46 3d 8d be 32 41 ca bd bc 4a 70 be
       -0.018657193 -0.2758581 -0.09875716 -0.23466009
000090 25 22 45 3e 0f d6 5c 3e 10 04 15 3e f1 0d cd 3d
       0.19251306 0.21566032 0.14552331 0.10012425
0000a0 74 3b 2a 3e 3b 58 56 be db d5 76 3d f1 fa 5c 3e
       0.16624242 -0.20932095 0.060262542 0.21580102
0000b0 73 b3 39 bd 2f c8 d9 3d f3 fc b6 3d c6 9e af bd
       -0.04533715 0.10633885 0.08934965 -0.085752055
0000c0 dd 70 45 be 5a 82 54 3e 14 4b 72 bd d9 31 96 3c
       -0.19281335 0.2075285 -0.05915363 0.018334316
0000d0 f9 3a 48 3e d2 ef 69 3e 13 71 86 3c da db 8a 3d
       0.19553746 0.2284539 0.01641134 0.067802146
0000e0 e3 7c 22 bd 12 9d 97 3e 89 5b b1 3c 9b 75 2d be
       -0.039669883 0.29612023 0.021650093 -0.16939394
0000f0 7b 42 70 3e 7b 01 3b 3e 78 1f 04 be e7 d7 7c be
       0.2346286 0.18262284 -0.1290263 -0.24691735
000100 7f a8 18 3e 73 1f 5c be aa fe 77 3d 70 ca 45 be
       0.14908026 -0.21496372 0.0605456 -0.19315505
000110 c2 b9 4a be 7a 8f 41 be fe 35 84 3d 89 0f 36 be
       -0.19797423 -0.18902388 0.06455611 -0.17779364
000120 08 7a ed bd d4 af 9a 3e f9 1e 5e bc 42 b9 3a be
       -0.11595541 0.3021227 -0.013557189 -0.18234733
000130 19 93 1a be 25 9e a0 bd 5b 76 04 3e 8b 89 c4 3c
       -0.15095176 -0.07842664 0.12935774 0.023991367
000140 90 f5 cd 3d 62 e0 2f 3e 93 c3 03 bd e2 39 f6 3d
       0.10056603 0.17175439 -0.032168936 0.12022759
000150 e0 b9 c2 bd c8 04 c4 3c 31 d3 de bd d7 20 d8 bd
       -0.09508109 0.023928061 -0.10880125 -0.10553139
000160 e1 3b 55 3e 1a c6 52 be 3e cf b8 bd 76 90 18 be
       0.20823623 -0.20583382 -0.09023903 -0.14898857
000170 5a 95 61 be 48 23 0e be 44 38 50 bd f3 c8 8e be
       -0.2202963 -0.13880646 -0.05083491 -0.27887687
000180 28 60 b1 3d f6 6d 29 3e d7 a5 8a bd 43 57 ca bd
       0.086609185 0.16545853 -0.06769913 -0.09879925
000190 8e 2b 35 3e 78 ae 90 bc 35 4c 1f bd 3f 39 cf 3d
       0.17692396 -0.017661318 -0.038891036 0.10118341
0001a0 03 8e d8 3d 7e 5e 62 be 11 6d 3a 3e 5d 7b 8b 3e
       0.105739616 -0.22106358 0.18205668 0.27242556
0001b0 84 e5 37 bd 31 47 65 3b c4 b5 dc 3d 70 29 02 be
       -0.044896618 0.003498506 0.107768565 -0.1271112
0001c0 b8 2c db bd 3c 6e 03 3e c4 6a 0c 3e 95 a1 0f bc
       -0.10701889 0.1283502 0.13712603 -0.0087665515
0001d0 76 3c c5 3c 7b 25 3e 3e 27 30 6b 3e 3b 81 35 3e
       0.024076682 0.18568985 0.22967587 0.17725079
0001e0 56 7b 59 bd 09 46 8e 3e 5d 75 d5 bd 94 0a f8 3d
       -0.053096138 0.27787808 -0.10422776 0.121113926
0001f0 67 7b 56 3e 43 5a 0f 3e 2e 53 05 3d 28 b7 11 3c
       0.20945512 0.13999276 0.03255003 0.0088937655
000200 c8 ac a5 be 5b b6 a3 3d ef 3b ba 3d ae c9 08 3e
       -0.32358384 0.07993766 0.09093463 0.13358185
000210 3d ba e9 3d e7 6e e2 3d d3 71 2b be 79 64 0f be
       0.11412475 0.11056309 -0.16742639 -0.14003171
000220 e6 cc a6 bd 98 70 5c bd 78 fd 03 be 43 43 8c 3d
       -0.0814455 -0.053818315 -0.1288966 0.06848767
000230 59 4d 1a be ec 24 21 3e 73 1c 11 be 1c 37 f7 bc
       -0.15068568 0.15736741 -0.14171009 -0.030177645
000240 d7 58 46 be 1a 26 57 be 0b 19 40 3e 65 86 da bd
       -0.19369827 -0.21010628 0.18759553 -0.10670165
000250 a9 ac 59 3c a2 cc a9 bd cb e2 81 3d a8 2e 19 3e
       0.013285794 -0.08290984 0.063420855 0.14959204
000260 93 f7 2d be ad 6d 0d 3e e2 13 db bd c9 97 64 3e
       -0.16988973 0.13811369 -0.10697152 0.22323526
000270 82 6c 2d 3e 5a c0 de bd 92 e4 42 3e 55 2d 18 3e
       0.16935924 -0.10876532 0.19032505 0.14861043
000280 0a 98 0d be 4a 99 f7 3d 1f 50 fc bd 70 3a f2 bc
       -0.1382753 0.120897844 -0.123199694 -0.02956888
000290 55 70 b7 bd b6 5a 2a be 8a a2 04 be 0b 65 6d bd
       -0.089569725 -0.16636166 -0.12952629 -0.05795769
0002a0 97 58 30 3e 56 af 51 be ba 82 4d 3e 34 a3 80 3e
       0.17221294 -0.20477042 0.200694 0.25124514
0002b0 82 f1 7f b9 ae 4c b4 3d 52 3a 28 3e c0 08 89 bc
       -0.00024408664 0.08803688 0.16428497 -0.016727805
0002c0 c1 ba c5 3c 39 6c 23 3e 21 7d 49 3e 3d d1 2f bd
       0.024136903 0.15959252 0.19676639 -0.042924155
0002d0 d2 4e 8c be b8 35 6a be 3f b7 d6 bc 14 f8 02 be
       -0.27403885 -0.22872055 -0.026210425 -0.12789947
0002e0 f1 eb 59 3d c9 18 53 be 77 97 f1 3d 62 97 8e bb
       0.053203527 -0.20614924 0.11796468 -0.0043515423
0002f0 73 dc f4 3c 5b e5 5a 3d eb 73 75 be a2 2c 2f be
       0.029890275 0.053441387 -0.2397 -0.1710687
000300 dc 79 e6 bd 84 7a 01 be a9 fe 36 3c 3e b3 4c 3e
       -0.112537116 -0.12644392 0.011169114 0.1999025
000310 7c 6a 3f 3d 37 ed 33 3d 58 86 1a 3d 7c 38 4a 3d
       0.04673241 0.043927398 0.037725776 0.049370274
000320 d5 ad c1 3d 9e 82 27 be 13 af 2c be 43 56 5b be
       0.09456984 -0.1635842 -0.1686366 -0.21419625
000330 cb 5f 13 3d 8c 65 7b 3c bd 83 2f 3e bf 03 59 be
       0.035980027 0.015344035 0.17140098 -0.21192835
000340 7b 8e eb bc 4e 4f 2d be 65 58 9f bd be be bc 3d
       -0.028754463 -0.16924784 -0.07780532 0.09216069
000350 e7 9f a2 be 9b 9a da bd 06 2e 82 3d 57 34 18 bc
       -0.3176262 -0.1067402 0.063564345 -0.009289823
000360 e1 8d 31 bd d8 78 01 bc 29 61 c0 3d 86 35 e1 bd
       -0.043348197 -0.007902347 0.09393532 -0.10996537
000370 f9 92 fe bd f3 a4 b1 bc 15 71 0c be 40 ca 0f 3d
       -0.124303766 -0.0216851 -0.13715012 0.03510499
000380 2f 8c 30 be f4 11 88 3b 3c 7c 94 be c1 8c 6b 3e
       -0.17240976 0.004152531 -0.29001033 0.23002912
000390 5c b4 11 be ce 47 35 3e 90 87 90 bc b9 a2 50 be
       -0.14228958 0.17703173 -0.017642766 -0.20374574
0003a0 72 84 de 3d ff e3 28 3d 45 48 db bc 07 7a 9e 3d
       0.10865106 0.04123306 -0.02676786 0.077381186
0003b0 b6 69 3a bc 09 e9 ba bd 8f 87 0e 3e 60 09 a0 bd
       -0.0113777425 -0.09126479 0.13918899 -0.07814288
0003c0 07 20 07 3e 88 c3 ad 3d 80 4d e7 3d 0f 90 39 be
       0.13195811 0.0848456 0.11294079 -0.1812136
0003d0 52 38 95 3e bf 14 33 3e 09 7d 28 3e 7b e5 45 bd
       0.2914453 0.17488383 0.16453947 -0.048314553
0003e0 7c 41 15 3e 35 99 fa 3d 5c ec 29 be 4a c5 72 3e
       0.14575762 0.12236253 -0.1659407 0.23708072
0003f0 df a3 22 3e d3 f2 4b 3e ac c7 8d 3e c0 81 63 be
       0.15882824 0.19916849 0.276914 -0.22217464

critic.fc2.bias f4 [128]
000000 71 6b 8c bd 5f c9 7e bb e1 b0 a7 bd 15 aa bc 3c
       -0.0685643 -0.003887735 -0.08188034 0.02303032
000010 30 c4 2d 3d be 67 19 bd 99 49 8a 3d 68 48 fe 3c
       0.042423427 -0.037452452 0.06752319 0.031040385
000020 6e bf 05 bd b9 1b ac 3d 2f 4a f4 3c 5a 99 09 3d
       -0.032653265 0.08403725 0.02982053 0.033593513
000030 4b 8b 57 3d e2 c9 85 bd 91 ed 69 3d 04 ce ac 3c
       0.052623075 -0.06532647 0.057111327 0.02109433
000040 a7 50 33 3d 59 ca a4 3d c9 e7 90 3d ba 7e 62 3c
       0.043778088 0.08046407 0.070754595 0.013824159
000050 38 a3 58 bd f2 61 a3 bd b5 42 52 bd 9d db fc 3c
       -0.052890033 -0.07977666 -0.051333148 0.030866439
000060 43 5b 42 bc 19 34 50 bc 5c 9c 68 bd 93 da 8a 3d
       -0.011862579 -0.012707734 -0.05678974 0.06779971
000070 65 94 50 bd 38 b8 39 bd 39 f9 3a 3d 6a 0d 14 bd
       -0.05092277 -0.0453417 0.045647833 -0.036145605
000080 a1 82 93 bc ac 96 ef bc f7 a7 37 bd 5c c7 b1 3d
       -0.018006625 -0.02924665 -0.044837918 0.08680603
000090 f9 b2 a2 bd 1d 2d 62 3c 48 63 0c bd 55 c8 ac 3d
       -0.079442926 0.013804701 -0.03427437 0.08436648
0000a0 dc 67 82 bd e3 88 01 3d a9 cd a5 3c 37 f1 83 bd
       -0.06367466 0.031624686 0.020239668 -0.064424925
0000b0 da 2d 32 bd cf b6 de 3d a4 16 08 bd d3 b9 c8 bc
       -0.04350076 0.10874712 -0.033224717 -0.02450267
0000c0 79 2f 09 3c 16 09 a0 3d 67 c0 a2 bd c0 a7 74 ba
       0.008373135 0.07814233 -0.07946854 -0.0009332858
0000d0 7a 63 c9 3c 28 b3 cb bc 8e cd 4c bd 23 81 17 3c
       0.024583567 -0.024865702 -0.05000072 0.009247097
0000e0 a7 04 45 bd 9f f0 ea 3c d6 88 d8 bd 01 ab a6 bc
       -0.04810014 0.02867919 -0.105729744 -0.020345213
0000f0 05 4c 36 bb e3 e9 a3 3d b3 1a 5a bd 6c 3b 13 bd
       -0.0027816307 0.08003595 -0.05324812 -0.03594534
000100 68 06 2c 3c 09 ab 8a 3d 44 a9 7f 3d 8a 33 de 3c
       0.010499574 0.067709036 0.062417284 0.027124185
000110 50 87 c0 3c 9d e1 a4 bd c7 bb 4c bd 6d eb 09 bd
       0.023502022 -0.08050845 -0.049983766 -0.033671785
000120 73 42 d2 bc f7 64 72 3c 9e 38 89 3d 89 08 e8 ba
       -0.025666451 0.01479458 0.06700252 -0.0017702739
000130 b6 62 10 3b fd 24 1e bd 8b c9 ae 3d a5 57 c0 bd
       0.0022031493 -0.038609494 0.08534535 -0.09391717
000140 03 cb a4 3d 8b c3 55 bd 34 8e 96 3d 19 fe c8 bc
       0.08046534 -0.052188437 0.07351342 -0.024535226
000150 bc 9d 3e 3d 33 73 aa bd e1 8d 8b bd 82 77 a1 bd
       0.046537146 -0.08322754 -0.06814171 -0.078841224
000160 d8 9c ea bc 59 c2 72 3d 85 3c 8f bc 89 49 2b 3d
       -0.028639242 0.059267376 -0.017484913 0.041818175
000170 d6 2e 6c bc 80 e2 b3 bd bd 28 fa 3c 5b 0c 55 3c
       -0.014415463 -0.08783436 0.030537004 0.013003434
000180 56 c7 a6 bc ef 42 17 bd 7e 1e 09 3d 6c c2 ad bd
       -0.020358723 -0.036929067 0.033476345 -0.08484349
000190 74 78 15 3d 7e 45 87 bd d2 35 89 3b ac d9 91 bd
       0.036491826 -0.066050515 0.004187324 -0.07121596
0001a0 c4 06 1a 3c dd 7b 9a bd 0f 7a 3f 3c b0 da ff 3a
       0.009401027 -0.07543156 0.011686816 0.001952013
0001b0 86 ac 60 3c a9 ea 5a 3d f5 b5 6c bd b3 db ab 3d
       0.013713008 0.053446446 -0.057790715 0.08391514
0001c0 7d c9 18 3d 41 67 7a bc 04 3a 87 3c fb 4a 06 bd
       0.03730153 -0.015283407 0.016507156 -0.03278635
0001d0 56 56 92 bd 70 4a ea 3c 14 fd 71 bd 5d 70 86 bc
       -0.071453735 0.028599948 -0.059079245 -0.016411
0001e0 c0 54 90 3d 6b a6 0e bd 3c 4c 21 3d 22 14 87 3d
       0.07047415 -0.034826677 0.039379343 0.06595637
0001f0 c5 c1 c3 bd 4b 78 65 bd e8 3f 63 3d a1 2e b9 3d
       -0.09558443 -0.056022923 0.055480868 0.09042097

critic.fc2.weight f4 [128, 128]
000000 ba 09 96 3d 60 e0 68 3d ca 9d ce 3c af 6b 24 3c
       0.07326074 0.056854606 0.025221724 0.010035439
000010 b0 48 22 3c 83 6a e3 bd 7f cb a9 3d 02 e0 90 3d
       0.009905025 -0.111043 0.08290767 0.07073976
000020 45 c4 67 3d 8c 4b 78 3d d0 1d d0 bc 64 00 a4 bc
       0.05658366 0.060618922 -0.02540484 -0.020019718
000030 54 bd c0 3d 8a 82 c0 bc fc 80 68 3c 4f ac 8e bd
       0.094111115 -0.023499746 0.0141909085 -0.06966459
000040 82 23 c5 bc 5b 32 c0 3c 96 05 79 3d 44 64 b3 bd
       -0.024064783 0.023461511 0.060796343 -0.087593585
000050 b1 e9 f0 3c 6d a8 e6 bd 14 ea db bd 95 94 ad 3c
       0.029408308 -0.112625934 -0.10738006 0.021189013
000060 87 a0 a5 bd 9d 3d 6f 3c ad bd 90 3c e2 c4 a3 3d
       -0.08087259 0.014602092 0.01766857 0.07996537
000070 a9 01 94 3d d8 70 c9 3d cb 8d c1 bd 46 80 60 3d
       0.07226879 0.09835976 -0.09450873 0.05480983
000080 cd 70 5a 3d 5f b5 01 3d ae 67 20 bd 91 dc 9d bd
       0.05333023 0.03166711 -0.039161377 -0.07708085
000090 a8 27 93 bc 37 9d 7b bd dc ac 4e bc 7f 50 aa 3d
       -0.017963246 -0.06142923 -0.012614455 0.08316135
0000a0 a3 cc 94 bc 42 b1 2a 3d 41 51 a5 bd 1e 6d 98 ba
       -0.018163985 0.041672952 -0.080721386 -0.0011629199
0000b0 8c 2e 55 3c 3d ea 9a 3c ea b7 b1 3c fe e6 99 bd
       0.013011586 0.018910522 0.021694142 -0.075147614
0000c0 f7 d2 61 bd 16 8c 10 bc ab 68 9e bd 01 70 35 bb
       -0.055132832 -0.008822462 -0.077348076 -0.0027685168
0000d0 23 90 da 3c 8f 06 e3 3c c8 52 af ba 8e b9 44 bd
       0.026680058 0.027713088 -0.0013376111 -0.04802852
0000e0 31 e0 3b bd e4 85 42 3d f5 fc 4b 3c 3c fa fc 3a
       -0.045868102 0.04749097 0.012450446 0.001930065
0000f0 23 b5 a1 3d a5 d7 b4 3c 8f 08 35 bc 68 6f 84 bd
       0.07895877 0.022075484 -0.011049404 -0.064665616
000100 b2 56 a1 bd 72 82 39 3b c1 4b 61 3d c1 a0 3c bc
       -0.07877864 0.0028306511 0.055003885 -0.011512936
000110 3a ce 90 bd 3b 2b 81 3c 2f 27 40 bb a1 c5 27 3d
       -0.070705846 0.015767684 -0.002932023 0.040959958
000120 7a 75 af bd dd 04 74 bd 4b 37 88 bd a8 39 a9 3d
       -0.08567329 -0.05957495 -0.06651171 0.0826295
000130 ee ce 86 bd 0d 70 56 bc 62 39 20 bd 69 04 ef bc
       -0.065824375 -0.013088238 -0.039117225 -0.029176908
000140 0c 85 a0 bd e2 b0 f7 bc cd 69 89 bc 3f c7 92 3d
       -0.07837877 -0.030235711 -0.016774083 0.071669094
000150 20 2c 9f 3d b0 ff 11 3d 46 74 d0 bd 26 ff 4d bd
       0.07772088 0.035644233 -0.101784274 -0.050292157
000160 b4 e4 7c bd b9 89 2f 3d 2b 83 ab 3d e0 30 24 3d
       -0.061741546 0.042855952 0.08374628 0.040085673
000170 21 98 8b 3d 7b 46 a5 3d 08 56 87 3c 1b 0f 73 3d
       0.06816126 0.08070084 0.016520515 0.059340578
000180 85 6f a6 bc d7 10 99 3d a0 86 86 bd c5 a7 70 3d
       -0.020316849 0.07473915 -0.065686464 0.058753747
000190 67 79 41 bd 64 d9 c5 3c 24 8e ba bc da c8 b5 bc
       -0.04723492 0.024151511 -0.022772856 -0.0221905
0001a0 c5 2d ab 3d 7e b9 99 3c 6d ab 80 bd 92 67 98 bd
       0.08358339 0.018765207 -0.06282697 -0.074416295
0001b0 23 99 be 3d 82 a1 34 3d 09 ce e9 3c d4 69 ce 3d
       0.09306552 0.04409934 0.028540628 0.10078779
0001c0 0e b7 b4 3c 23 b2 82 bc 8e 7b e1 bc 24 a7 81 3d
       0.022059944 -0.015954083 -0.027524736 0.06330708
0001d0 c0 11 9b bc fe 22 92 3d e3 09 e7 3c 30 7c 85 bd
       -0.018929362 0.071355805 0.028202957 -0.065178275
0001e0 56 54 8e 3d ef b8 e7 3c 68 eb 6a 3d b4 69 69 bc
       0.069496796 0.028286425 0.057353407 -0.014246393
0001f0 5a 89 8b bd 62 75 a1 3b f2 bf 9c bb c0 49 52 3d
       -0.06813307 0.004927323 -0.004783624 0.051339865
000200 71 56 7a 3d 1a dd b0 bd 3d bc 09 3d 9b 6e 6d 3d
       0.061117593 -0.08635922 0.033626784 0.05796681
000210 c9 45 1e bd 11 7a b0 bd ad 98 c6 bd 9b 73 5b bd
       -0.03864077 -0.08617032 -0.09697089 -0.053577047
000220 e5 f4 39 3c e3 75 87 3b d8 a6 6a 3d b2 69 14 3c
       0.011349891 0.0041339262 0.05728802 0.009058403
000230 d9 07 79 3c ec ab 92 3d 5c 85 79 bd 47 cc 6d 3d
       0.015199625 0.07161698 -0.060918197 0.058056142
000240 5f c2 97 3d 90 06 7f 3c 49 45 89 bd 6a 20 3a 3d
       0.0741012 0.0155655295 -0.06702668 0.04544107
000250 e1 11 ea bc 74 8a 2b 3d b7 4e 19 bd a4 f4 1e 3c
       -0.028572978 0.041880086 -0.037428584 0.009701882
000260 fd 5a 7c bd 39 98 9d bd 91 9d 70 3b b9 85 34 bc
       -0.06161021 -0.0769505 0.003671501 -0.01101821
000270 61 68 15 bd b0 2f b3 3d 80 f0 04 3d b0 80 45 bd
       -0.036476497 0.0874933 0.03245592 -0.04821843
000280 04 fa e6 bc bf 99 c3 bc 51 5d 81 bd 47 93 87 bc
       -0.028195389 -0.023877023 -0.06316627 -0.01654972
000290 df d3 58 3d f8 67 3d bd c1 ef a0 3d 0f 96 09 bd
       0.05293643 -0.04624173 0.078582294 -0.033590373
0002a0 61 78 2d 3d 83 5f 6a 3c d0 62 bb bd bc d7 6f 3d
       0.04235113 0.014304998 -0.09149706 0.05855535
0002b0 3b a8 9b 3d 1b f1 96 bd 4d 1f 9d bd bd fb 81 3d
       0.07600447 -0.07370206 -0.07671986 0.063468434
0002c0 85 b9 30 3b 54 b7 69 3c c6 f4 40 3d 8e ec 01 bc
       0.0026966047 0.0142649 0.047108434 -0.007929934
0002d0 b0 30 05 bd 89 7b fd 3c b9 e9 c4 3d e9 76 92 bd
       -0.032517135 0.030942695 0.096148916 -0.071515866
0002e0 ac f5 a2 bc c8 3f a2 3d 53 29 81 bd 2c b2 ff 3b
       -0.019892536 0.079223216 -0.0630671 0.007803222
0002f0 1a b5 08 bd 09 ac 99 bd cc 41 91 bd 02 0d ad 3d
       -0.033375837 -0.07503516 -0.07092628 0.08449747
000300 94 d4 8e 3d 28 8e c4 bd 8c 60 07 bd 5a c0 3e 3d
       0.0697414 -0.09597427 -0.03305106 0.04657016
000310 f1 86 a0 bd b5 d5 ab 3d bc d2 10 3c 59 67 8d 3c
       -0.07838238 0.08390371 0.0088393055 0.017261194
000320 5a 34 1a 3d cc 18 ca 3c 82 61 96 bd fa 74 37 3d
       0.037647583 0.024670027 -0.07342817 0.044789292
000330 ac b9 23 3c bb a0 f7 3c 56 f6 56 bd 1e ed aa bd
       0.009992998 0.03022801 -0.052481018 -0.08346008
000340 d8 7d f3 bc 54 b6 b1 3d b2 e1 73 3d 81 67 9f bd
       -0.029723093 0.086773545 0.05954141 -0.07783414
000350 92 7a a0 bb 3b b4 3b bd 32 c5 fb 3a df e1 e2 bc
       -0.004897424 -0.045826178 0.0019208549 -0.027695594
000360 e4 a3 8e bd 24 04 41 3c a5 c0 71 bc 30 d7 bc bd
       -0.069648534 0.011780772 -0.014755403 -0.09220731
000370 81 c3 bc bd 76 e7 fb 3c b3 72 d8 3c 56 42 38 3d
       -0.09216977 0.030750018 0.02642188 0.044985138
000380 98 61 88 bd 1e f4 03 bd b1 6d 90 3d 92 88 64 3d
       -0.066592395 -0.03221523 0.07052172 0.055794306
000390 4e ca 5c bd 5c 12 93 3d 76 30 c1 3c 23 87 14 bd
       -0.05390387 0.07181236 0.023582678 -0.03626169
0003a0 78 c8 cd bb 0d c6 06 3d 09 98 66 bc 50 f3 45 3d
       -0.0062800013 0.03290372 -0.014074334 0.048327744
0003b0 06 14 31 3d 16 ad 86 bd 14 b4 11 3c c0 48 82 bc
       0.043231986 -0.06575982 0.008893032 -0.01590383
0003c0 fa fe b3 bc 29 38 17 3d ad 60 5a bd 8d a7 6d bd
       -0.021972168 0.036918793 -0.053314853 -0.058021117
0003d0 34 88 36 bd 4b fe 98 bd ca f6 9f 3d b7 67 86 3d
       -0.044563487 -0.074703775 0.07810743 0.06562751
0003e0 31 38 51 bd 0f 95 11 3d e5 d6 6d bd f1 24 46 bd
       -0.05107898 0.035542544 -0.058066268 -0.048375074
0003f0 21 3f 65 3c 8b 7b 3b bd 1b a1 98 3d 01 e9 a1 3d
       0.013992102 -0.045772117 0.074526034 0.0790577
